node {
  name: "global_step/Initializer/Const"
  op: "Const"
  attr {
    key: "_class"
    value {
      list {
        s: "loc:@global_step"
      }
    }
  }
  attr {
    key: "_output_shapes"
    value {
      list {
        shape {
        }
      }
    }
  }
  attr {
    key: "dtype"
    value {
      type: DT_INT64
    }
  }
  attr {
    key: "value"
    value {
      tensor {
        dtype: DT_INT64
        tensor_shape {
        }
        int64_val: 0
      }
    }
  }
}
node {
  name: "global_step"
  op: "VariableV2"
  attr {
    key: "_class"
    value {
      list {
        s: "loc:@global_step"
      }
    }
  }
  attr {
    key: "_output_shapes"
    value {
      list {
        shape {
        }
      }
    }
  }
  attr {
    key: "container"
    value {
      s: ""
    }
  }
  attr {
    key: "dtype"
    value {
      type: DT_INT64
    }
  }
  attr {
    key: "shape"
    value {
      shape {
      }
    }
  }
  attr {
    key: "shared_name"
    value {
      s: ""
    }
  }
}
node {
  name: "global_step/Assign"
  op: "Assign"
  input: "global_step"
  input: "global_step/Initializer/Const"
  attr {
    key: "T"
    value {
      type: DT_INT64
    }
  }
  attr {
    key: "_class"
    value {
      list {
        s: "loc:@global_step"
      }
    }
  }
  attr {
    key: "_output_shapes"
    value {
      list {
        shape {
        }
      }
    }
  }
  attr {
    key: "use_locking"
    value {
      b: true
    }
  }
  attr {
    key: "validate_shape"
    value {
      b: true
    }
  }
}
node {
  name: "global_step/read"
  op: "Identity"
  input: "global_step"
  attr {
    key: "T"
    value {
      type: DT_INT64
    }
  }
  attr {
    key: "_class"
    value {
      list {
        s: "loc:@global_step"
      }
    }
  }
  attr {
    key: "_output_shapes"
    value {
      list {
        shape {
        }
      }
    }
  }
}
node {
  name: "train_input_fn/parallel_read/filenames/Const"
  op: "Const"
  attr {
    key: "_output_shapes"
    value {
      list {
        shape {
          dim {
            size: 1
          }
        }
      }
    }
  }
  attr {
    key: "dtype"
    value {
      type: DT_STRING
    }
  }
  attr {
    key: "value"
    value {
      tensor {
        dtype: DT_STRING
        tensor_shape {
          dim {
            size: 1
          }
        }
        string_val: "/home/natural/notebooks/CSE_481_NLP/data/train/sms_large.source"
      }
    }
  }
}
node {
  name: "train_input_fn/parallel_read/filenames/Size"
  op: "Const"
  attr {
    key: "_output_shapes"
    value {
      list {
        shape {
        }
      }
    }
  }
  attr {
    key: "dtype"
    value {
      type: DT_INT32
    }
  }
  attr {
    key: "value"
    value {
      tensor {
        dtype: DT_INT32
        tensor_shape {
        }
        int_val: 1
      }
    }
  }
}
node {
  name: "train_input_fn/parallel_read/filenames/Greater/y"
  op: "Const"
  attr {
    key: "_output_shapes"
    value {
      list {
        shape {
        }
      }
    }
  }
  attr {
    key: "dtype"
    value {
      type: DT_INT32
    }
  }
  attr {
    key: "value"
    value {
      tensor {
        dtype: DT_INT32
        tensor_shape {
        }
        int_val: 0
      }
    }
  }
}
node {
  name: "train_input_fn/parallel_read/filenames/Greater"
  op: "Greater"
  input: "train_input_fn/parallel_read/filenames/Size"
  input: "train_input_fn/parallel_read/filenames/Greater/y"
  attr {
    key: "T"
    value {
      type: DT_INT32
    }
  }
  attr {
    key: "_output_shapes"
    value {
      list {
        shape {
        }
      }
    }
  }
}
node {
  name: "train_input_fn/parallel_read/filenames/Assert/Const"
  op: "Const"
  attr {
    key: "_output_shapes"
    value {
      list {
        shape {
        }
      }
    }
  }
  attr {
    key: "dtype"
    value {
      type: DT_STRING
    }
  }
  attr {
    key: "value"
    value {
      tensor {
        dtype: DT_STRING
        tensor_shape {
        }
        string_val: "string_input_producer requires a non-null input tensor"
      }
    }
  }
}
node {
  name: "train_input_fn/parallel_read/filenames/Assert/Assert/data_0"
  op: "Const"
  attr {
    key: "_output_shapes"
    value {
      list {
        shape {
        }
      }
    }
  }
  attr {
    key: "dtype"
    value {
      type: DT_STRING
    }
  }
  attr {
    key: "value"
    value {
      tensor {
        dtype: DT_STRING
        tensor_shape {
        }
        string_val: "string_input_producer requires a non-null input tensor"
      }
    }
  }
}
node {
  name: "train_input_fn/parallel_read/filenames/Assert/Assert"
  op: "Assert"
  input: "train_input_fn/parallel_read/filenames/Greater"
  input: "train_input_fn/parallel_read/filenames/Assert/Assert/data_0"
  attr {
    key: "T"
    value {
      list {
        type: DT_STRING
      }
    }
  }
  attr {
    key: "summarize"
    value {
      i: 3
    }
  }
}
node {
  name: "train_input_fn/parallel_read/filenames/Identity"
  op: "Identity"
  input: "train_input_fn/parallel_read/filenames/Const"
  input: "^train_input_fn/parallel_read/filenames/Assert/Assert"
  attr {
    key: "T"
    value {
      type: DT_STRING
    }
  }
  attr {
    key: "_output_shapes"
    value {
      list {
        shape {
          dim {
            size: 1
          }
        }
      }
    }
  }
}
node {
  name: "train_input_fn/parallel_read/filenames"
  op: "FIFOQueueV2"
  attr {
    key: "_output_shapes"
    value {
      list {
        shape {
        }
      }
    }
  }
  attr {
    key: "capacity"
    value {
      i: 32
    }
  }
  attr {
    key: "component_types"
    value {
      list {
        type: DT_STRING
      }
    }
  }
  attr {
    key: "container"
    value {
      s: ""
    }
  }
  attr {
    key: "shapes"
    value {
      list {
        shape {
        }
      }
    }
  }
  attr {
    key: "shared_name"
    value {
      s: ""
    }
  }
}
node {
  name: "train_input_fn/parallel_read/filenames/filenames_EnqueueMany"
  op: "QueueEnqueueManyV2"
  input: "train_input_fn/parallel_read/filenames"
  input: "train_input_fn/parallel_read/filenames/Identity"
  attr {
    key: "Tcomponents"
    value {
      list {
        type: DT_STRING
      }
    }
  }
  attr {
    key: "timeout_ms"
    value {
      i: -1
    }
  }
}
node {
  name: "train_input_fn/parallel_read/filenames/filenames_Close"
  op: "QueueCloseV2"
  input: "train_input_fn/parallel_read/filenames"
  attr {
    key: "cancel_pending_enqueues"
    value {
      b: false
    }
  }
}
node {
  name: "train_input_fn/parallel_read/filenames/filenames_Close_1"
  op: "QueueCloseV2"
  input: "train_input_fn/parallel_read/filenames"
  attr {
    key: "cancel_pending_enqueues"
    value {
      b: true
    }
  }
}
node {
  name: "train_input_fn/parallel_read/filenames/filenames_Size"
  op: "QueueSizeV2"
  input: "train_input_fn/parallel_read/filenames"
  attr {
    key: "_output_shapes"
    value {
      list {
        shape {
        }
      }
    }
  }
}
node {
  name: "train_input_fn/parallel_read/filenames/Cast"
  op: "Cast"
  input: "train_input_fn/parallel_read/filenames/filenames_Size"
  attr {
    key: "DstT"
    value {
      type: DT_FLOAT
    }
  }
  attr {
    key: "SrcT"
    value {
      type: DT_INT32
    }
  }
  attr {
    key: "_output_shapes"
    value {
      list {
        shape {
        }
      }
    }
  }
}
node {
  name: "train_input_fn/parallel_read/filenames/mul/y"
  op: "Const"
  attr {
    key: "_output_shapes"
    value {
      list {
        shape {
        }
      }
    }
  }
  attr {
    key: "dtype"
    value {
      type: DT_FLOAT
    }
  }
  attr {
    key: "value"
    value {
      tensor {
        dtype: DT_FLOAT
        tensor_shape {
        }
        float_val: 0.03125
      }
    }
  }
}
node {
  name: "train_input_fn/parallel_read/filenames/mul"
  op: "Mul"
  input: "train_input_fn/parallel_read/filenames/Cast"
  input: "train_input_fn/parallel_read/filenames/mul/y"
  attr {
    key: "T"
    value {
      type: DT_FLOAT
    }
  }
  attr {
    key: "_output_shapes"
    value {
      list {
        shape {
        }
      }
    }
  }
}
node {
  name: "train_input_fn/parallel_read/filenames/fraction_of_32_full/tags"
  op: "Const"
  attr {
    key: "_output_shapes"
    value {
      list {
        shape {
        }
      }
    }
  }
  attr {
    key: "dtype"
    value {
      type: DT_STRING
    }
  }
  attr {
    key: "value"
    value {
      tensor {
        dtype: DT_STRING
        tensor_shape {
        }
        string_val: "train_input_fn/parallel_read/filenames/fraction_of_32_full"
      }
    }
  }
}
node {
  name: "train_input_fn/parallel_read/filenames/fraction_of_32_full"
  op: "ScalarSummary"
  input: "train_input_fn/parallel_read/filenames/fraction_of_32_full/tags"
  input: "train_input_fn/parallel_read/filenames/mul"
  attr {
    key: "T"
    value {
      type: DT_FLOAT
    }
  }
  attr {
    key: "_output_shapes"
    value {
      list {
        shape {
        }
      }
    }
  }
}
node {
  name: "train_input_fn/parallel_read/common_queue"
  op: "FIFOQueueV2"
  attr {
    key: "_output_shapes"
    value {
      list {
        shape {
        }
      }
    }
  }
  attr {
    key: "capacity"
    value {
      i: 4096
    }
  }
  attr {
    key: "component_types"
    value {
      list {
        type: DT_STRING
        type: DT_STRING
      }
    }
  }
  attr {
    key: "container"
    value {
      s: ""
    }
  }
  attr {
    key: "shapes"
    value {
      list {
      }
    }
  }
  attr {
    key: "shared_name"
    value {
      s: ""
    }
  }
}
node {
  name: "train_input_fn/parallel_read/common_queue_Size"
  op: "QueueSizeV2"
  input: "train_input_fn/parallel_read/common_queue"
  attr {
    key: "_output_shapes"
    value {
      list {
        shape {
        }
      }
    }
  }
}
node {
  name: "train_input_fn/parallel_read/ToFloat"
  op: "Cast"
  input: "train_input_fn/parallel_read/common_queue_Size"
  attr {
    key: "DstT"
    value {
      type: DT_FLOAT
    }
  }
  attr {
    key: "SrcT"
    value {
      type: DT_INT32
    }
  }
  attr {
    key: "_output_shapes"
    value {
      list {
        shape {
        }
      }
    }
  }
}
node {
  name: "train_input_fn/parallel_read/mul/y"
  op: "Const"
  attr {
    key: "_output_shapes"
    value {
      list {
        shape {
        }
      }
    }
  }
  attr {
    key: "dtype"
    value {
      type: DT_FLOAT
    }
  }
  attr {
    key: "value"
    value {
      tensor {
        dtype: DT_FLOAT
        tensor_shape {
        }
        float_val: 0.000244140625
      }
    }
  }
}
node {
  name: "train_input_fn/parallel_read/mul"
  op: "Mul"
  input: "train_input_fn/parallel_read/ToFloat"
  input: "train_input_fn/parallel_read/mul/y"
  attr {
    key: "T"
    value {
      type: DT_FLOAT
    }
  }
  attr {
    key: "_output_shapes"
    value {
      list {
        shape {
        }
      }
    }
  }
}
node {
  name: "train_input_fn/parallel_read/fraction_of_4096_full/tags"
  op: "Const"
  attr {
    key: "_output_shapes"
    value {
      list {
        shape {
        }
      }
    }
  }
  attr {
    key: "dtype"
    value {
      type: DT_STRING
    }
  }
  attr {
    key: "value"
    value {
      tensor {
        dtype: DT_STRING
        tensor_shape {
        }
        string_val: "train_input_fn/parallel_read/fraction_of_4096_full"
      }
    }
  }
}
node {
  name: "train_input_fn/parallel_read/fraction_of_4096_full"
  op: "ScalarSummary"
  input: "train_input_fn/parallel_read/fraction_of_4096_full/tags"
  input: "train_input_fn/parallel_read/mul"
  attr {
    key: "T"
    value {
      type: DT_FLOAT
    }
  }
  attr {
    key: "_output_shapes"
    value {
      list {
        shape {
        }
      }
    }
  }
}
node {
  name: "train_input_fn/parallel_read/TextLineReaderV2"
  op: "TextLineReaderV2"
  attr {
    key: "_output_shapes"
    value {
      list {
        shape {
        }
      }
    }
  }
  attr {
    key: "container"
    value {
      s: ""
    }
  }
  attr {
    key: "shared_name"
    value {
      s: ""
    }
  }
  attr {
    key: "skip_header_lines"
    value {
      i: 0
    }
  }
}
node {
  name: "train_input_fn/parallel_read/ReaderReadV2"
  op: "ReaderReadV2"
  input: "train_input_fn/parallel_read/TextLineReaderV2"
  input: "train_input_fn/parallel_read/filenames"
  attr {
    key: "_output_shapes"
    value {
      list {
        shape {
        }
        shape {
        }
      }
    }
  }
}
node {
  name: "train_input_fn/parallel_read/common_queue_enqueue"
  op: "QueueEnqueueV2"
  input: "train_input_fn/parallel_read/common_queue"
  input: "train_input_fn/parallel_read/ReaderReadV2"
  input: "train_input_fn/parallel_read/ReaderReadV2:1"
  attr {
    key: "Tcomponents"
    value {
      list {
        type: DT_STRING
        type: DT_STRING
      }
    }
  }
  attr {
    key: "timeout_ms"
    value {
      i: -1
    }
  }
}
node {
  name: "train_input_fn/parallel_read/common_queue_Close"
  op: "QueueCloseV2"
  input: "train_input_fn/parallel_read/common_queue"
  attr {
    key: "cancel_pending_enqueues"
    value {
      b: false
    }
  }
}
node {
  name: "train_input_fn/parallel_read/common_queue_Close_1"
  op: "QueueCloseV2"
  input: "train_input_fn/parallel_read/common_queue"
  attr {
    key: "cancel_pending_enqueues"
    value {
      b: true
    }
  }
}
node {
  name: "train_input_fn/parallel_read/common_queue_Dequeue"
  op: "QueueDequeueV2"
  input: "train_input_fn/parallel_read/common_queue"
  attr {
    key: "_output_shapes"
    value {
      list {
        shape {
          unknown_rank: true
        }
        shape {
          unknown_rank: true
        }
      }
    }
  }
  attr {
    key: "component_types"
    value {
      list {
        type: DT_STRING
        type: DT_STRING
      }
    }
  }
  attr {
    key: "timeout_ms"
    value {
      i: -1
    }
  }
}
node {
  name: "train_input_fn/parallel_read_1/filenames/Const"
  op: "Const"
  attr {
    key: "_output_shapes"
    value {
      list {
        shape {
          dim {
            size: 1
          }
        }
      }
    }
  }
  attr {
    key: "dtype"
    value {
      type: DT_STRING
    }
  }
  attr {
    key: "value"
    value {
      tensor {
        dtype: DT_STRING
        tensor_shape {
          dim {
            size: 1
          }
        }
        string_val: "/home/natural/notebooks/CSE_481_NLP/data/train/sms_large.target"
      }
    }
  }
}
node {
  name: "train_input_fn/parallel_read_1/filenames/Size"
  op: "Const"
  attr {
    key: "_output_shapes"
    value {
      list {
        shape {
        }
      }
    }
  }
  attr {
    key: "dtype"
    value {
      type: DT_INT32
    }
  }
  attr {
    key: "value"
    value {
      tensor {
        dtype: DT_INT32
        tensor_shape {
        }
        int_val: 1
      }
    }
  }
}
node {
  name: "train_input_fn/parallel_read_1/filenames/Greater/y"
  op: "Const"
  attr {
    key: "_output_shapes"
    value {
      list {
        shape {
        }
      }
    }
  }
  attr {
    key: "dtype"
    value {
      type: DT_INT32
    }
  }
  attr {
    key: "value"
    value {
      tensor {
        dtype: DT_INT32
        tensor_shape {
        }
        int_val: 0
      }
    }
  }
}
node {
  name: "train_input_fn/parallel_read_1/filenames/Greater"
  op: "Greater"
  input: "train_input_fn/parallel_read_1/filenames/Size"
  input: "train_input_fn/parallel_read_1/filenames/Greater/y"
  attr {
    key: "T"
    value {
      type: DT_INT32
    }
  }
  attr {
    key: "_output_shapes"
    value {
      list {
        shape {
        }
      }
    }
  }
}
node {
  name: "train_input_fn/parallel_read_1/filenames/Assert/Const"
  op: "Const"
  attr {
    key: "_output_shapes"
    value {
      list {
        shape {
        }
      }
    }
  }
  attr {
    key: "dtype"
    value {
      type: DT_STRING
    }
  }
  attr {
    key: "value"
    value {
      tensor {
        dtype: DT_STRING
        tensor_shape {
        }
        string_val: "string_input_producer requires a non-null input tensor"
      }
    }
  }
}
node {
  name: "train_input_fn/parallel_read_1/filenames/Assert/Assert/data_0"
  op: "Const"
  attr {
    key: "_output_shapes"
    value {
      list {
        shape {
        }
      }
    }
  }
  attr {
    key: "dtype"
    value {
      type: DT_STRING
    }
  }
  attr {
    key: "value"
    value {
      tensor {
        dtype: DT_STRING
        tensor_shape {
        }
        string_val: "string_input_producer requires a non-null input tensor"
      }
    }
  }
}
node {
  name: "train_input_fn/parallel_read_1/filenames/Assert/Assert"
  op: "Assert"
  input: "train_input_fn/parallel_read_1/filenames/Greater"
  input: "train_input_fn/parallel_read_1/filenames/Assert/Assert/data_0"
  attr {
    key: "T"
    value {
      list {
        type: DT_STRING
      }
    }
  }
  attr {
    key: "summarize"
    value {
      i: 3
    }
  }
}
node {
  name: "train_input_fn/parallel_read_1/filenames/Identity"
  op: "Identity"
  input: "train_input_fn/parallel_read_1/filenames/Const"
  input: "^train_input_fn/parallel_read_1/filenames/Assert/Assert"
  attr {
    key: "T"
    value {
      type: DT_STRING
    }
  }
  attr {
    key: "_output_shapes"
    value {
      list {
        shape {
          dim {
            size: 1
          }
        }
      }
    }
  }
}
node {
  name: "train_input_fn/parallel_read_1/filenames"
  op: "FIFOQueueV2"
  attr {
    key: "_output_shapes"
    value {
      list {
        shape {
        }
      }
    }
  }
  attr {
    key: "capacity"
    value {
      i: 32
    }
  }
  attr {
    key: "component_types"
    value {
      list {
        type: DT_STRING
      }
    }
  }
  attr {
    key: "container"
    value {
      s: ""
    }
  }
  attr {
    key: "shapes"
    value {
      list {
        shape {
        }
      }
    }
  }
  attr {
    key: "shared_name"
    value {
      s: ""
    }
  }
}
node {
  name: "train_input_fn/parallel_read_1/filenames/filenames_EnqueueMany"
  op: "QueueEnqueueManyV2"
  input: "train_input_fn/parallel_read_1/filenames"
  input: "train_input_fn/parallel_read_1/filenames/Identity"
  attr {
    key: "Tcomponents"
    value {
      list {
        type: DT_STRING
      }
    }
  }
  attr {
    key: "timeout_ms"
    value {
      i: -1
    }
  }
}
node {
  name: "train_input_fn/parallel_read_1/filenames/filenames_Close"
  op: "QueueCloseV2"
  input: "train_input_fn/parallel_read_1/filenames"
  attr {
    key: "cancel_pending_enqueues"
    value {
      b: false
    }
  }
}
node {
  name: "train_input_fn/parallel_read_1/filenames/filenames_Close_1"
  op: "QueueCloseV2"
  input: "train_input_fn/parallel_read_1/filenames"
  attr {
    key: "cancel_pending_enqueues"
    value {
      b: true
    }
  }
}
node {
  name: "train_input_fn/parallel_read_1/filenames/filenames_Size"
  op: "QueueSizeV2"
  input: "train_input_fn/parallel_read_1/filenames"
  attr {
    key: "_output_shapes"
    value {
      list {
        shape {
        }
      }
    }
  }
}
node {
  name: "train_input_fn/parallel_read_1/filenames/Cast"
  op: "Cast"
  input: "train_input_fn/parallel_read_1/filenames/filenames_Size"
  attr {
    key: "DstT"
    value {
      type: DT_FLOAT
    }
  }
  attr {
    key: "SrcT"
    value {
      type: DT_INT32
    }
  }
  attr {
    key: "_output_shapes"
    value {
      list {
        shape {
        }
      }
    }
  }
}
node {
  name: "train_input_fn/parallel_read_1/filenames/mul/y"
  op: "Const"
  attr {
    key: "_output_shapes"
    value {
      list {
        shape {
        }
      }
    }
  }
  attr {
    key: "dtype"
    value {
      type: DT_FLOAT
    }
  }
  attr {
    key: "value"
    value {
      tensor {
        dtype: DT_FLOAT
        tensor_shape {
        }
        float_val: 0.03125
      }
    }
  }
}
node {
  name: "train_input_fn/parallel_read_1/filenames/mul"
  op: "Mul"
  input: "train_input_fn/parallel_read_1/filenames/Cast"
  input: "train_input_fn/parallel_read_1/filenames/mul/y"
  attr {
    key: "T"
    value {
      type: DT_FLOAT
    }
  }
  attr {
    key: "_output_shapes"
    value {
      list {
        shape {
        }
      }
    }
  }
}
node {
  name: "train_input_fn/parallel_read_1/filenames/fraction_of_32_full/tags"
  op: "Const"
  attr {
    key: "_output_shapes"
    value {
      list {
        shape {
        }
      }
    }
  }
  attr {
    key: "dtype"
    value {
      type: DT_STRING
    }
  }
  attr {
    key: "value"
    value {
      tensor {
        dtype: DT_STRING
        tensor_shape {
        }
        string_val: "train_input_fn/parallel_read_1/filenames/fraction_of_32_full"
      }
    }
  }
}
node {
  name: "train_input_fn/parallel_read_1/filenames/fraction_of_32_full"
  op: "ScalarSummary"
  input: "train_input_fn/parallel_read_1/filenames/fraction_of_32_full/tags"
  input: "train_input_fn/parallel_read_1/filenames/mul"
  attr {
    key: "T"
    value {
      type: DT_FLOAT
    }
  }
  attr {
    key: "_output_shapes"
    value {
      list {
        shape {
        }
      }
    }
  }
}
node {
  name: "train_input_fn/parallel_read_1/common_queue"
  op: "FIFOQueueV2"
  attr {
    key: "_output_shapes"
    value {
      list {
        shape {
        }
      }
    }
  }
  attr {
    key: "capacity"
    value {
      i: 4096
    }
  }
  attr {
    key: "component_types"
    value {
      list {
        type: DT_STRING
        type: DT_STRING
      }
    }
  }
  attr {
    key: "container"
    value {
      s: ""
    }
  }
  attr {
    key: "shapes"
    value {
      list {
      }
    }
  }
  attr {
    key: "shared_name"
    value {
      s: ""
    }
  }
}
node {
  name: "train_input_fn/parallel_read_1/common_queue_Size"
  op: "QueueSizeV2"
  input: "train_input_fn/parallel_read_1/common_queue"
  attr {
    key: "_output_shapes"
    value {
      list {
        shape {
        }
      }
    }
  }
}
node {
  name: "train_input_fn/parallel_read_1/ToFloat"
  op: "Cast"
  input: "train_input_fn/parallel_read_1/common_queue_Size"
  attr {
    key: "DstT"
    value {
      type: DT_FLOAT
    }
  }
  attr {
    key: "SrcT"
    value {
      type: DT_INT32
    }
  }
  attr {
    key: "_output_shapes"
    value {
      list {
        shape {
        }
      }
    }
  }
}
node {
  name: "train_input_fn/parallel_read_1/mul/y"
  op: "Const"
  attr {
    key: "_output_shapes"
    value {
      list {
        shape {
        }
      }
    }
  }
  attr {
    key: "dtype"
    value {
      type: DT_FLOAT
    }
  }
  attr {
    key: "value"
    value {
      tensor {
        dtype: DT_FLOAT
        tensor_shape {
        }
        float_val: 0.000244140625
      }
    }
  }
}
node {
  name: "train_input_fn/parallel_read_1/mul"
  op: "Mul"
  input: "train_input_fn/parallel_read_1/ToFloat"
  input: "train_input_fn/parallel_read_1/mul/y"
  attr {
    key: "T"
    value {
      type: DT_FLOAT
    }
  }
  attr {
    key: "_output_shapes"
    value {
      list {
        shape {
        }
      }
    }
  }
}
node {
  name: "train_input_fn/parallel_read_1/fraction_of_4096_full/tags"
  op: "Const"
  attr {
    key: "_output_shapes"
    value {
      list {
        shape {
        }
      }
    }
  }
  attr {
    key: "dtype"
    value {
      type: DT_STRING
    }
  }
  attr {
    key: "value"
    value {
      tensor {
        dtype: DT_STRING
        tensor_shape {
        }
        string_val: "train_input_fn/parallel_read_1/fraction_of_4096_full"
      }
    }
  }
}
node {
  name: "train_input_fn/parallel_read_1/fraction_of_4096_full"
  op: "ScalarSummary"
  input: "train_input_fn/parallel_read_1/fraction_of_4096_full/tags"
  input: "train_input_fn/parallel_read_1/mul"
  attr {
    key: "T"
    value {
      type: DT_FLOAT
    }
  }
  attr {
    key: "_output_shapes"
    value {
      list {
        shape {
        }
      }
    }
  }
}
node {
  name: "train_input_fn/parallel_read_1/TextLineReaderV2"
  op: "TextLineReaderV2"
  attr {
    key: "_output_shapes"
    value {
      list {
        shape {
        }
      }
    }
  }
  attr {
    key: "container"
    value {
      s: ""
    }
  }
  attr {
    key: "shared_name"
    value {
      s: ""
    }
  }
  attr {
    key: "skip_header_lines"
    value {
      i: 0
    }
  }
}
node {
  name: "train_input_fn/parallel_read_1/ReaderReadV2"
  op: "ReaderReadV2"
  input: "train_input_fn/parallel_read_1/TextLineReaderV2"
  input: "train_input_fn/parallel_read_1/filenames"
  attr {
    key: "_output_shapes"
    value {
      list {
        shape {
        }
        shape {
        }
      }
    }
  }
}
node {
  name: "train_input_fn/parallel_read_1/common_queue_enqueue"
  op: "QueueEnqueueV2"
  input: "train_input_fn/parallel_read_1/common_queue"
  input: "train_input_fn/parallel_read_1/ReaderReadV2"
  input: "train_input_fn/parallel_read_1/ReaderReadV2:1"
  attr {
    key: "Tcomponents"
    value {
      list {
        type: DT_STRING
        type: DT_STRING
      }
    }
  }
  attr {
    key: "timeout_ms"
    value {
      i: -1
    }
  }
}
node {
  name: "train_input_fn/parallel_read_1/common_queue_Close"
  op: "QueueCloseV2"
  input: "train_input_fn/parallel_read_1/common_queue"
  attr {
    key: "cancel_pending_enqueues"
    value {
      b: false
    }
  }
}
node {
  name: "train_input_fn/parallel_read_1/common_queue_Close_1"
  op: "QueueCloseV2"
  input: "train_input_fn/parallel_read_1/common_queue"
  attr {
    key: "cancel_pending_enqueues"
    value {
      b: true
    }
  }
}
node {
  name: "train_input_fn/parallel_read_1/common_queue_Dequeue"
  op: "QueueDequeueV2"
  input: "train_input_fn/parallel_read_1/common_queue"
  attr {
    key: "_output_shapes"
    value {
      list {
        shape {
          unknown_rank: true
        }
        shape {
          unknown_rank: true
        }
      }
    }
  }
  attr {
    key: "component_types"
    value {
      list {
        type: DT_STRING
        type: DT_STRING
      }
    }
  }
  attr {
    key: "timeout_ms"
    value {
      i: -1
    }
  }
}
node {
  name: "train_input_fn/random_shuffle_queue"
  op: "RandomShuffleQueueV2"
  attr {
    key: "_output_shapes"
    value {
      list {
        shape {
        }
      }
    }
  }
  attr {
    key: "capacity"
    value {
      i: 4096
    }
  }
  attr {
    key: "component_types"
    value {
      list {
        type: DT_STRING
        type: DT_STRING
      }
    }
  }
  attr {
    key: "container"
    value {
      s: ""
    }
  }
  attr {
    key: "min_after_dequeue"
    value {
      i: 1024
    }
  }
  attr {
    key: "seed"
    value {
      i: 87654321
    }
  }
  attr {
    key: "seed2"
    value {
      i: 214008035
    }
  }
  attr {
    key: "shapes"
    value {
      list {
      }
    }
  }
  attr {
    key: "shared_name"
    value {
      s: ""
    }
  }
}
node {
  name: "train_input_fn/random_shuffle_queue_enqueue"
  op: "QueueEnqueueV2"
  input: "train_input_fn/random_shuffle_queue"
  input: "train_input_fn/parallel_read/common_queue_Dequeue:1"
  input: "train_input_fn/parallel_read_1/common_queue_Dequeue:1"
  attr {
    key: "Tcomponents"
    value {
      list {
        type: DT_STRING
        type: DT_STRING
      }
    }
  }
  attr {
    key: "timeout_ms"
    value {
      i: -1
    }
  }
}
node {
  name: "train_input_fn/random_shuffle_queue_Close"
  op: "QueueCloseV2"
  input: "train_input_fn/random_shuffle_queue"
  attr {
    key: "cancel_pending_enqueues"
    value {
      b: false
    }
  }
}
node {
  name: "train_input_fn/random_shuffle_queue_Close_1"
  op: "QueueCloseV2"
  input: "train_input_fn/random_shuffle_queue"
  attr {
    key: "cancel_pending_enqueues"
    value {
      b: true
    }
  }
}
node {
  name: "train_input_fn/random_shuffle_queue_Dequeue"
  op: "QueueDequeueV2"
  input: "train_input_fn/random_shuffle_queue"
  attr {
    key: "_output_shapes"
    value {
      list {
        shape {
          unknown_rank: true
        }
        shape {
          unknown_rank: true
        }
      }
    }
  }
  attr {
    key: "component_types"
    value {
      list {
        type: DT_STRING
        type: DT_STRING
      }
    }
  }
  attr {
    key: "timeout_ms"
    value {
      i: -1
    }
  }
}
node {
  name: "train_input_fn/Const"
  op: "Const"
  attr {
    key: "_output_shapes"
    value {
      list {
        shape {
        }
      }
    }
  }
  attr {
    key: "dtype"
    value {
      type: DT_STRING
    }
  }
  attr {
    key: "value"
    value {
      tensor {
        dtype: DT_STRING
        tensor_shape {
        }
        string_val: " "
      }
    }
  }
}
node {
  name: "train_input_fn/packed"
  op: "Pack"
  input: "train_input_fn/random_shuffle_queue_Dequeue"
  attr {
    key: "N"
    value {
      i: 1
    }
  }
  attr {
    key: "T"
    value {
      type: DT_STRING
    }
  }
  attr {
    key: "_output_shapes"
    value {
      list {
        shape {
          unknown_rank: true
        }
      }
    }
  }
  attr {
    key: "axis"
    value {
      i: 0
    }
  }
}
node {
  name: "train_input_fn/StringSplit"
  op: "StringSplit"
  input: "train_input_fn/packed"
  input: "train_input_fn/Const"
  attr {
    key: "_output_shapes"
    value {
      list {
        shape {
          dim {
            size: -1
          }
          dim {
            size: 2
          }
        }
        shape {
          dim {
            size: -1
          }
        }
        shape {
          dim {
            size: 2
          }
        }
      }
    }
  }
}
node {
  name: "train_input_fn/concat/values_1"
  op: "Const"
  attr {
    key: "_output_shapes"
    value {
      list {
        shape {
          dim {
            size: 1
          }
        }
      }
    }
  }
  attr {
    key: "dtype"
    value {
      type: DT_STRING
    }
  }
  attr {
    key: "value"
    value {
      tensor {
        dtype: DT_STRING
        tensor_shape {
          dim {
            size: 1
          }
        }
        string_val: "SEQUENCE_END"
      }
    }
  }
}
node {
  name: "train_input_fn/concat/axis"
  op: "Const"
  attr {
    key: "_output_shapes"
    value {
      list {
        shape {
        }
      }
    }
  }
  attr {
    key: "dtype"
    value {
      type: DT_INT32
    }
  }
  attr {
    key: "value"
    value {
      tensor {
        dtype: DT_INT32
        tensor_shape {
        }
        int_val: 0
      }
    }
  }
}
node {
  name: "train_input_fn/concat"
  op: "ConcatV2"
  input: "train_input_fn/StringSplit:1"
  input: "train_input_fn/concat/values_1"
  input: "train_input_fn/concat/axis"
  attr {
    key: "N"
    value {
      i: 2
    }
  }
  attr {
    key: "T"
    value {
      type: DT_STRING
    }
  }
  attr {
    key: "Tidx"
    value {
      type: DT_INT32
    }
  }
  attr {
    key: "_output_shapes"
    value {
      list {
        shape {
          dim {
            size: -1
          }
        }
      }
    }
  }
}
node {
  name: "train_input_fn/Size"
  op: "Size"
  input: "train_input_fn/concat"
  attr {
    key: "T"
    value {
      type: DT_STRING
    }
  }
  attr {
    key: "_output_shapes"
    value {
      list {
        shape {
        }
      }
    }
  }
  attr {
    key: "out_type"
    value {
      type: DT_INT32
    }
  }
}
node {
  name: "train_input_fn/Const_1"
  op: "Const"
  attr {
    key: "_output_shapes"
    value {
      list {
        shape {
        }
      }
    }
  }
  attr {
    key: "dtype"
    value {
      type: DT_STRING
    }
  }
  attr {
    key: "value"
    value {
      tensor {
        dtype: DT_STRING
        tensor_shape {
        }
        string_val: " "
      }
    }
  }
}
node {
  name: "train_input_fn/packed_1"
  op: "Pack"
  input: "train_input_fn/random_shuffle_queue_Dequeue:1"
  attr {
    key: "N"
    value {
      i: 1
    }
  }
  attr {
    key: "T"
    value {
      type: DT_STRING
    }
  }
  attr {
    key: "_output_shapes"
    value {
      list {
        shape {
          unknown_rank: true
        }
      }
    }
  }
  attr {
    key: "axis"
    value {
      i: 0
    }
  }
}
node {
  name: "train_input_fn/StringSplit_1"
  op: "StringSplit"
  input: "train_input_fn/packed_1"
  input: "train_input_fn/Const_1"
  attr {
    key: "_output_shapes"
    value {
      list {
        shape {
          dim {
            size: -1
          }
          dim {
            size: 2
          }
        }
        shape {
          dim {
            size: -1
          }
        }
        shape {
          dim {
            size: 2
          }
        }
      }
    }
  }
}
node {
  name: "train_input_fn/concat_1/values_0"
  op: "Const"
  attr {
    key: "_output_shapes"
    value {
      list {
        shape {
          dim {
            size: 1
          }
        }
      }
    }
  }
  attr {
    key: "dtype"
    value {
      type: DT_STRING
    }
  }
  attr {
    key: "value"
    value {
      tensor {
        dtype: DT_STRING
        tensor_shape {
          dim {
            size: 1
          }
        }
        string_val: "SEQUENCE_START"
      }
    }
  }
}
node {
  name: "train_input_fn/concat_1/axis"
  op: "Const"
  attr {
    key: "_output_shapes"
    value {
      list {
        shape {
        }
      }
    }
  }
  attr {
    key: "dtype"
    value {
      type: DT_INT32
    }
  }
  attr {
    key: "value"
    value {
      tensor {
        dtype: DT_INT32
        tensor_shape {
        }
        int_val: 0
      }
    }
  }
}
node {
  name: "train_input_fn/concat_1"
  op: "ConcatV2"
  input: "train_input_fn/concat_1/values_0"
  input: "train_input_fn/StringSplit_1:1"
  input: "train_input_fn/concat_1/axis"
  attr {
    key: "N"
    value {
      i: 2
    }
  }
  attr {
    key: "T"
    value {
      type: DT_STRING
    }
  }
  attr {
    key: "Tidx"
    value {
      type: DT_INT32
    }
  }
  attr {
    key: "_output_shapes"
    value {
      list {
        shape {
          dim {
            size: -1
          }
        }
      }
    }
  }
}
node {
  name: "train_input_fn/concat_2/values_1"
  op: "Const"
  attr {
    key: "_output_shapes"
    value {
      list {
        shape {
          dim {
            size: 1
          }
        }
      }
    }
  }
  attr {
    key: "dtype"
    value {
      type: DT_STRING
    }
  }
  attr {
    key: "value"
    value {
      tensor {
        dtype: DT_STRING
        tensor_shape {
          dim {
            size: 1
          }
        }
        string_val: "SEQUENCE_END"
      }
    }
  }
}
node {
  name: "train_input_fn/concat_2/axis"
  op: "Const"
  attr {
    key: "_output_shapes"
    value {
      list {
        shape {
        }
      }
    }
  }
  attr {
    key: "dtype"
    value {
      type: DT_INT32
    }
  }
  attr {
    key: "value"
    value {
      tensor {
        dtype: DT_INT32
        tensor_shape {
        }
        int_val: 0
      }
    }
  }
}
node {
  name: "train_input_fn/concat_2"
  op: "ConcatV2"
  input: "train_input_fn/concat_1"
  input: "train_input_fn/concat_2/values_1"
  input: "train_input_fn/concat_2/axis"
  attr {
    key: "N"
    value {
      i: 2
    }
  }
  attr {
    key: "T"
    value {
      type: DT_STRING
    }
  }
  attr {
    key: "Tidx"
    value {
      type: DT_INT32
    }
  }
  attr {
    key: "_output_shapes"
    value {
      list {
        shape {
          dim {
            size: -1
          }
        }
      }
    }
  }
}
node {
  name: "train_input_fn/Size_1"
  op: "Size"
  input: "train_input_fn/concat_2"
  attr {
    key: "T"
    value {
      type: DT_STRING
    }
  }
  attr {
    key: "_output_shapes"
    value {
      list {
        shape {
        }
      }
    }
  }
  attr {
    key: "out_type"
    value {
      type: DT_INT32
    }
  }
}
node {
  name: "train_input_fn/GreaterEqual/y"
  op: "Const"
  attr {
    key: "_output_shapes"
    value {
      list {
        shape {
        }
      }
    }
  }
  attr {
    key: "dtype"
    value {
      type: DT_INT32
    }
  }
  attr {
    key: "value"
    value {
      tensor {
        dtype: DT_INT32
        tensor_shape {
        }
        int_val: 1
      }
    }
  }
}
node {
  name: "train_input_fn/GreaterEqual"
  op: "GreaterEqual"
  input: "train_input_fn/Size"
  input: "train_input_fn/GreaterEqual/y"
  attr {
    key: "T"
    value {
      type: DT_INT32
    }
  }
  attr {
    key: "_output_shapes"
    value {
      list {
        shape {
        }
      }
    }
  }
}
node {
  name: "train_input_fn/bucket_queue/LessEqual/x"
  op: "Const"
  attr {
    key: "_output_shapes"
    value {
      list {
        shape {
          dim {
            size: 5
          }
        }
      }
    }
  }
  attr {
    key: "dtype"
    value {
      type: DT_INT32
    }
  }
  attr {
    key: "value"
    value {
      tensor {
        dtype: DT_INT32
        tensor_shape {
          dim {
            size: 5
          }
        }
        tensor_content: "\000\000\000\200\n\000\000\000\024\000\000\000\036\000\000\000(\000\000\000"
      }
    }
  }
}
node {
  name: "train_input_fn/bucket_queue/LessEqual"
  op: "LessEqual"
  input: "train_input_fn/bucket_queue/LessEqual/x"
  input: "train_input_fn/Size"
  attr {
    key: "T"
    value {
      type: DT_INT32
    }
  }
  attr {
    key: "_output_shapes"
    value {
      list {
        shape {
          dim {
            size: 5
          }
        }
      }
    }
  }
}
node {
  name: "train_input_fn/bucket_queue/Less/y"
  op: "Const"
  attr {
    key: "_output_shapes"
    value {
      list {
        shape {
          dim {
            size: 5
          }
        }
      }
    }
  }
  attr {
    key: "dtype"
    value {
      type: DT_INT32
    }
  }
  attr {
    key: "value"
    value {
      tensor {
        dtype: DT_INT32
        tensor_shape {
          dim {
            size: 5
          }
        }
        tensor_content: "\n\000\000\000\024\000\000\000\036\000\000\000(\000\000\000\377\377\377\177"
      }
    }
  }
}
node {
  name: "train_input_fn/bucket_queue/Less"
  op: "Less"
  input: "train_input_fn/Size"
  input: "train_input_fn/bucket_queue/Less/y"
  attr {
    key: "T"
    value {
      type: DT_INT32
    }
  }
  attr {
    key: "_output_shapes"
    value {
      list {
        shape {
          dim {
            size: 5
          }
        }
      }
    }
  }
}
node {
  name: "train_input_fn/bucket_queue/LogicalAnd"
  op: "LogicalAnd"
  input: "train_input_fn/bucket_queue/LessEqual"
  input: "train_input_fn/bucket_queue/Less"
  attr {
    key: "_output_shapes"
    value {
      list {
        shape {
          dim {
            size: 5
          }
        }
      }
    }
  }
}
node {
  name: "train_input_fn/bucket_queue/Where"
  op: "Where"
  input: "train_input_fn/bucket_queue/LogicalAnd"
  attr {
    key: "_output_shapes"
    value {
      list {
        shape {
          dim {
            size: -1
          }
          dim {
            size: 1
          }
        }
      }
    }
  }
}
node {
  name: "train_input_fn/bucket_queue/Const"
  op: "Const"
  attr {
    key: "_output_shapes"
    value {
      list {
        shape {
          dim {
            size: 2
          }
        }
      }
    }
  }
  attr {
    key: "dtype"
    value {
      type: DT_INT32
    }
  }
  attr {
    key: "value"
    value {
      tensor {
        dtype: DT_INT32
        tensor_shape {
          dim {
            size: 2
          }
        }
        tensor_content: "\000\000\000\000\001\000\000\000"
      }
    }
  }
}
node {
  name: "train_input_fn/bucket_queue/Min"
  op: "Min"
  input: "train_input_fn/bucket_queue/Where"
  input: "train_input_fn/bucket_queue/Const"
  attr {
    key: "T"
    value {
      type: DT_INT64
    }
  }
  attr {
    key: "Tidx"
    value {
      type: DT_INT32
    }
  }
  attr {
    key: "_output_shapes"
    value {
      list {
        shape {
        }
      }
    }
  }
  attr {
    key: "keep_dims"
    value {
      b: false
    }
  }
}
node {
  name: "train_input_fn/bucket_queue/ToInt32"
  op: "Cast"
  input: "train_input_fn/bucket_queue/Min"
  attr {
    key: "DstT"
    value {
      type: DT_INT32
    }
  }
  attr {
    key: "SrcT"
    value {
      type: DT_INT64
    }
  }
  attr {
    key: "_output_shapes"
    value {
      list {
        shape {
        }
      }
    }
  }
}
node {
  name: "train_input_fn/bucket_queue/bucket/Const"
  op: "Const"
  attr {
    key: "_output_shapes"
    value {
      list {
        shape {
        }
      }
    }
  }
  attr {
    key: "dtype"
    value {
      type: DT_BOOL
    }
  }
  attr {
    key: "value"
    value {
      tensor {
        dtype: DT_BOOL
        tensor_shape {
        }
        bool_val: true
      }
    }
  }
}
node {
  name: "train_input_fn/bucket_queue/bucket/batch_size"
  op: "Const"
  attr {
    key: "_output_shapes"
    value {
      list {
        shape {
        }
      }
    }
  }
  attr {
    key: "dtype"
    value {
      type: DT_INT32
    }
  }
  attr {
    key: "value"
    value {
      tensor {
        dtype: DT_INT32
        tensor_shape {
        }
        int_val: 32
      }
    }
  }
}
node {
  name: "train_input_fn/bucket_queue/bucket/batch_size_1"
  op: "Const"
  attr {
    key: "_output_shapes"
    value {
      list {
        shape {
        }
      }
    }
  }
  attr {
    key: "dtype"
    value {
      type: DT_INT32
    }
  }
  attr {
    key: "value"
    value {
      tensor {
        dtype: DT_INT32
        tensor_shape {
        }
        int_val: 32
      }
    }
  }
}
node {
  name: "train_input_fn/bucket_queue/bucket/batch_size_2"
  op: "Const"
  attr {
    key: "_output_shapes"
    value {
      list {
        shape {
        }
      }
    }
  }
  attr {
    key: "dtype"
    value {
      type: DT_INT32
    }
  }
  attr {
    key: "value"
    value {
      tensor {
        dtype: DT_INT32
        tensor_shape {
        }
        int_val: 32
      }
    }
  }
}
node {
  name: "train_input_fn/bucket_queue/bucket/batch_size_3"
  op: "Const"
  attr {
    key: "_output_shapes"
    value {
      list {
        shape {
        }
      }
    }
  }
  attr {
    key: "dtype"
    value {
      type: DT_INT32
    }
  }
  attr {
    key: "value"
    value {
      tensor {
        dtype: DT_INT32
        tensor_shape {
        }
        int_val: 32
      }
    }
  }
}
node {
  name: "train_input_fn/bucket_queue/bucket/batch_size_4"
  op: "Const"
  attr {
    key: "_output_shapes"
    value {
      list {
        shape {
        }
      }
    }
  }
  attr {
    key: "dtype"
    value {
      type: DT_INT32
    }
  }
  attr {
    key: "value"
    value {
      tensor {
        dtype: DT_INT32
        tensor_shape {
        }
        int_val: 32
      }
    }
  }
}
node {
  name: "train_input_fn/bucket_queue/bucket/bucket_queue_0"
  op: "PaddingFIFOQueueV2"
  attr {
    key: "_output_shapes"
    value {
      list {
        shape {
        }
      }
    }
  }
  attr {
    key: "capacity"
    value {
      i: 5512
    }
  }
  attr {
    key: "component_types"
    value {
      list {
        type: DT_INT32
        type: DT_INT32
        type: DT_STRING
        type: DT_INT32
        type: DT_STRING
      }
    }
  }
  attr {
    key: "container"
    value {
      s: ""
    }
  }
  attr {
    key: "shapes"
    value {
      list {
        shape {
        }
        shape {
        }
        shape {
          dim {
            size: -1
          }
        }
        shape {
        }
        shape {
          dim {
            size: -1
          }
        }
      }
    }
  }
  attr {
    key: "shared_name"
    value {
      s: ""
    }
  }
}
node {
  name: "train_input_fn/bucket_queue/bucket/bucket_queue_1"
  op: "PaddingFIFOQueueV2"
  attr {
    key: "_output_shapes"
    value {
      list {
        shape {
        }
      }
    }
  }
  attr {
    key: "capacity"
    value {
      i: 5512
    }
  }
  attr {
    key: "component_types"
    value {
      list {
        type: DT_INT32
        type: DT_INT32
        type: DT_STRING
        type: DT_INT32
        type: DT_STRING
      }
    }
  }
  attr {
    key: "container"
    value {
      s: ""
    }
  }
  attr {
    key: "shapes"
    value {
      list {
        shape {
        }
        shape {
        }
        shape {
          dim {
            size: -1
          }
        }
        shape {
        }
        shape {
          dim {
            size: -1
          }
        }
      }
    }
  }
  attr {
    key: "shared_name"
    value {
      s: ""
    }
  }
}
node {
  name: "train_input_fn/bucket_queue/bucket/bucket_queue_2"
  op: "PaddingFIFOQueueV2"
  attr {
    key: "_output_shapes"
    value {
      list {
        shape {
        }
      }
    }
  }
  attr {
    key: "capacity"
    value {
      i: 5512
    }
  }
  attr {
    key: "component_types"
    value {
      list {
        type: DT_INT32
        type: DT_INT32
        type: DT_STRING
        type: DT_INT32
        type: DT_STRING
      }
    }
  }
  attr {
    key: "container"
    value {
      s: ""
    }
  }
  attr {
    key: "shapes"
    value {
      list {
        shape {
        }
        shape {
        }
        shape {
          dim {
            size: -1
          }
        }
        shape {
        }
        shape {
          dim {
            size: -1
          }
        }
      }
    }
  }
  attr {
    key: "shared_name"
    value {
      s: ""
    }
  }
}
node {
  name: "train_input_fn/bucket_queue/bucket/bucket_queue_3"
  op: "PaddingFIFOQueueV2"
  attr {
    key: "_output_shapes"
    value {
      list {
        shape {
        }
      }
    }
  }
  attr {
    key: "capacity"
    value {
      i: 5512
    }
  }
  attr {
    key: "component_types"
    value {
      list {
        type: DT_INT32
        type: DT_INT32
        type: DT_STRING
        type: DT_INT32
        type: DT_STRING
      }
    }
  }
  attr {
    key: "container"
    value {
      s: ""
    }
  }
  attr {
    key: "shapes"
    value {
      list {
        shape {
        }
        shape {
        }
        shape {
          dim {
            size: -1
          }
        }
        shape {
        }
        shape {
          dim {
            size: -1
          }
        }
      }
    }
  }
  attr {
    key: "shared_name"
    value {
      s: ""
    }
  }
}
node {
  name: "train_input_fn/bucket_queue/bucket/bucket_queue_4"
  op: "PaddingFIFOQueueV2"
  attr {
    key: "_output_shapes"
    value {
      list {
        shape {
        }
      }
    }
  }
  attr {
    key: "capacity"
    value {
      i: 5512
    }
  }
  attr {
    key: "component_types"
    value {
      list {
        type: DT_INT32
        type: DT_INT32
        type: DT_STRING
        type: DT_INT32
        type: DT_STRING
      }
    }
  }
  attr {
    key: "container"
    value {
      s: ""
    }
  }
  attr {
    key: "shapes"
    value {
      list {
        shape {
        }
        shape {
        }
        shape {
          dim {
            size: -1
          }
        }
        shape {
        }
        shape {
          dim {
            size: -1
          }
        }
      }
    }
  }
  attr {
    key: "shared_name"
    value {
      s: ""
    }
  }
}
node {
  name: "train_input_fn/bucket_queue/bucket/top_queue"
  op: "PaddingFIFOQueueV2"
  attr {
    key: "_output_shapes"
    value {
      list {
        shape {
        }
      }
    }
  }
  attr {
    key: "capacity"
    value {
      i: 5512
    }
  }
  attr {
    key: "component_types"
    value {
      list {
        type: DT_INT32
        type: DT_INT32
        type: DT_INT32
        type: DT_STRING
        type: DT_INT32
        type: DT_STRING
      }
    }
  }
  attr {
    key: "container"
    value {
      s: ""
    }
  }
  attr {
    key: "shapes"
    value {
      list {
        shape {
        }
        shape {
          dim {
            size: 32
          }
        }
        shape {
          dim {
            size: 32
          }
        }
        shape {
          dim {
            size: 32
          }
          dim {
            size: -1
          }
        }
        shape {
          dim {
            size: 32
          }
        }
        shape {
          dim {
            size: 32
          }
          dim {
            size: -1
          }
        }
      }
    }
  }
  attr {
    key: "shared_name"
    value {
      s: ""
    }
  }
}
node {
  name: "train_input_fn/bucket_queue/bucket/cond/Switch"
  op: "Switch"
  input: "train_input_fn/GreaterEqual"
  input: "train_input_fn/GreaterEqual"
  attr {
    key: "T"
    value {
      type: DT_BOOL
    }
  }
  attr {
    key: "_output_shapes"
    value {
      list {
        shape {
        }
        shape {
        }
      }
    }
  }
}
node {
  name: "train_input_fn/bucket_queue/bucket/cond/switch_t"
  op: "Identity"
  input: "train_input_fn/bucket_queue/bucket/cond/Switch:1"
  attr {
    key: "T"
    value {
      type: DT_BOOL
    }
  }
  attr {
    key: "_output_shapes"
    value {
      list {
        shape {
        }
      }
    }
  }
}
node {
  name: "train_input_fn/bucket_queue/bucket/cond/switch_f"
  op: "Identity"
  input: "train_input_fn/bucket_queue/bucket/cond/Switch"
  attr {
    key: "T"
    value {
      type: DT_BOOL
    }
  }
  attr {
    key: "_output_shapes"
    value {
      list {
        shape {
        }
      }
    }
  }
}
node {
  name: "train_input_fn/bucket_queue/bucket/cond/pred_id"
  op: "Identity"
  input: "train_input_fn/GreaterEqual"
  attr {
    key: "T"
    value {
      type: DT_BOOL
    }
  }
  attr {
    key: "_output_shapes"
    value {
      list {
        shape {
        }
      }
    }
  }
}
node {
  name: "train_input_fn/bucket_queue/bucket/cond/Equal/y"
  op: "Const"
  input: "^train_input_fn/bucket_queue/bucket/cond/switch_t"
  attr {
    key: "_output_shapes"
    value {
      list {
        shape {
        }
      }
    }
  }
  attr {
    key: "dtype"
    value {
      type: DT_INT32
    }
  }
  attr {
    key: "value"
    value {
      tensor {
        dtype: DT_INT32
        tensor_shape {
        }
        int_val: 0
      }
    }
  }
}
node {
  name: "train_input_fn/bucket_queue/bucket/cond/Equal/Switch"
  op: "Switch"
  input: "train_input_fn/bucket_queue/ToInt32"
  input: "train_input_fn/bucket_queue/bucket/cond/pred_id"
  attr {
    key: "T"
    value {
      type: DT_INT32
    }
  }
  attr {
    key: "_class"
    value {
      list {
        s: "loc:@train_input_fn/bucket_queue/ToInt32"
      }
    }
  }
  attr {
    key: "_output_shapes"
    value {
      list {
        shape {
        }
        shape {
        }
      }
    }
  }
}
node {
  name: "train_input_fn/bucket_queue/bucket/cond/Equal"
  op: "Equal"
  input: "train_input_fn/bucket_queue/bucket/cond/Equal/Switch:1"
  input: "train_input_fn/bucket_queue/bucket/cond/Equal/y"
  attr {
    key: "T"
    value {
      type: DT_INT32
    }
  }
  attr {
    key: "_output_shapes"
    value {
      list {
        shape {
        }
      }
    }
  }
}
node {
  name: "train_input_fn/bucket_queue/bucket/cond/cond/Switch"
  op: "Switch"
  input: "train_input_fn/bucket_queue/bucket/cond/Equal"
  input: "train_input_fn/bucket_queue/bucket/cond/Equal"
  attr {
    key: "T"
    value {
      type: DT_BOOL
    }
  }
  attr {
    key: "_output_shapes"
    value {
      list {
        shape {
        }
        shape {
        }
      }
    }
  }
}
node {
  name: "train_input_fn/bucket_queue/bucket/cond/cond/switch_t"
  op: "Identity"
  input: "train_input_fn/bucket_queue/bucket/cond/cond/Switch:1"
  attr {
    key: "T"
    value {
      type: DT_BOOL
    }
  }
  attr {
    key: "_output_shapes"
    value {
      list {
        shape {
        }
      }
    }
  }
}
node {
  name: "train_input_fn/bucket_queue/bucket/cond/cond/switch_f"
  op: "Identity"
  input: "train_input_fn/bucket_queue/bucket/cond/cond/Switch"
  attr {
    key: "T"
    value {
      type: DT_BOOL
    }
  }
  attr {
    key: "_output_shapes"
    value {
      list {
        shape {
        }
      }
    }
  }
}
node {
  name: "train_input_fn/bucket_queue/bucket/cond/cond/pred_id"
  op: "Identity"
  input: "train_input_fn/bucket_queue/bucket/cond/Equal"
  attr {
    key: "T"
    value {
      type: DT_BOOL
    }
  }
  attr {
    key: "_output_shapes"
    value {
      list {
        shape {
        }
      }
    }
  }
}
node {
  name: "train_input_fn/bucket_queue/bucket/cond/cond/bucket_queue_0_enqueue/Switch"
  op: "Switch"
  input: "train_input_fn/bucket_queue/bucket/bucket_queue_0"
  input: "train_input_fn/bucket_queue/bucket/cond/pred_id"
  attr {
    key: "T"
    value {
      type: DT_RESOURCE
    }
  }
  attr {
    key: "_class"
    value {
      list {
        s: "loc:@train_input_fn/bucket_queue/bucket/bucket_queue_0"
      }
    }
  }
  attr {
    key: "_output_shapes"
    value {
      list {
        shape {
        }
        shape {
        }
      }
    }
  }
}
node {
  name: "train_input_fn/bucket_queue/bucket/cond/cond/bucket_queue_0_enqueue/Switch_1"
  op: "Switch"
  input: "train_input_fn/bucket_queue/bucket/cond/cond/bucket_queue_0_enqueue/Switch:1"
  input: "train_input_fn/bucket_queue/bucket/cond/cond/pred_id"
  attr {
    key: "T"
    value {
      type: DT_RESOURCE
    }
  }
  attr {
    key: "_class"
    value {
      list {
        s: "loc:@train_input_fn/bucket_queue/bucket/bucket_queue_0"
      }
    }
  }
  attr {
    key: "_output_shapes"
    value {
      list {
        shape {
        }
        shape {
        }
      }
    }
  }
}
node {
  name: "train_input_fn/bucket_queue/bucket/cond/cond/bucket_queue_0_enqueue/Switch_2"
  op: "Switch"
  input: "train_input_fn/Size"
  input: "train_input_fn/bucket_queue/bucket/cond/pred_id"
  attr {
    key: "T"
    value {
      type: DT_INT32
    }
  }
  attr {
    key: "_class"
    value {
      list {
        s: "loc:@train_input_fn/Size"
      }
    }
  }
  attr {
    key: "_output_shapes"
    value {
      list {
        shape {
        }
        shape {
        }
      }
    }
  }
}
node {
  name: "train_input_fn/bucket_queue/bucket/cond/cond/bucket_queue_0_enqueue/Switch_3"
  op: "Switch"
  input: "train_input_fn/bucket_queue/bucket/cond/cond/bucket_queue_0_enqueue/Switch_2:1"
  input: "train_input_fn/bucket_queue/bucket/cond/cond/pred_id"
  attr {
    key: "T"
    value {
      type: DT_INT32
    }
  }
  attr {
    key: "_class"
    value {
      list {
        s: "loc:@train_input_fn/Size"
      }
    }
  }
  attr {
    key: "_output_shapes"
    value {
      list {
        shape {
        }
        shape {
        }
      }
    }
  }
}
node {
  name: "train_input_fn/bucket_queue/bucket/cond/cond/bucket_queue_0_enqueue/Switch_4"
  op: "Switch"
  input: "train_input_fn/concat"
  input: "train_input_fn/bucket_queue/bucket/cond/pred_id"
  attr {
    key: "T"
    value {
      type: DT_STRING
    }
  }
  attr {
    key: "_class"
    value {
      list {
        s: "loc:@train_input_fn/concat"
      }
    }
  }
  attr {
    key: "_output_shapes"
    value {
      list {
        shape {
          dim {
            size: -1
          }
        }
        shape {
          dim {
            size: -1
          }
        }
      }
    }
  }
}
node {
  name: "train_input_fn/bucket_queue/bucket/cond/cond/bucket_queue_0_enqueue/Switch_5"
  op: "Switch"
  input: "train_input_fn/bucket_queue/bucket/cond/cond/bucket_queue_0_enqueue/Switch_4:1"
  input: "train_input_fn/bucket_queue/bucket/cond/cond/pred_id"
  attr {
    key: "T"
    value {
      type: DT_STRING
    }
  }
  attr {
    key: "_class"
    value {
      list {
        s: "loc:@train_input_fn/concat"
      }
    }
  }
  attr {
    key: "_output_shapes"
    value {
      list {
        shape {
          dim {
            size: -1
          }
        }
        shape {
          dim {
            size: -1
          }
        }
      }
    }
  }
}
node {
  name: "train_input_fn/bucket_queue/bucket/cond/cond/bucket_queue_0_enqueue/Switch_6"
  op: "Switch"
  input: "train_input_fn/Size_1"
  input: "train_input_fn/bucket_queue/bucket/cond/pred_id"
  attr {
    key: "T"
    value {
      type: DT_INT32
    }
  }
  attr {
    key: "_class"
    value {
      list {
        s: "loc:@train_input_fn/Size_1"
      }
    }
  }
  attr {
    key: "_output_shapes"
    value {
      list {
        shape {
        }
        shape {
        }
      }
    }
  }
}
node {
  name: "train_input_fn/bucket_queue/bucket/cond/cond/bucket_queue_0_enqueue/Switch_7"
  op: "Switch"
  input: "train_input_fn/bucket_queue/bucket/cond/cond/bucket_queue_0_enqueue/Switch_6:1"
  input: "train_input_fn/bucket_queue/bucket/cond/cond/pred_id"
  attr {
    key: "T"
    value {
      type: DT_INT32
    }
  }
  attr {
    key: "_class"
    value {
      list {
        s: "loc:@train_input_fn/Size_1"
      }
    }
  }
  attr {
    key: "_output_shapes"
    value {
      list {
        shape {
        }
        shape {
        }
      }
    }
  }
}
node {
  name: "train_input_fn/bucket_queue/bucket/cond/cond/bucket_queue_0_enqueue/Switch_8"
  op: "Switch"
  input: "train_input_fn/concat_2"
  input: "train_input_fn/bucket_queue/bucket/cond/pred_id"
  attr {
    key: "T"
    value {
      type: DT_STRING
    }
  }
  attr {
    key: "_class"
    value {
      list {
        s: "loc:@train_input_fn/concat_2"
      }
    }
  }
  attr {
    key: "_output_shapes"
    value {
      list {
        shape {
          dim {
            size: -1
          }
        }
        shape {
          dim {
            size: -1
          }
        }
      }
    }
  }
}
node {
  name: "train_input_fn/bucket_queue/bucket/cond/cond/bucket_queue_0_enqueue/Switch_9"
  op: "Switch"
  input: "train_input_fn/bucket_queue/bucket/cond/cond/bucket_queue_0_enqueue/Switch_8:1"
  input: "train_input_fn/bucket_queue/bucket/cond/cond/pred_id"
  attr {
    key: "T"
    value {
      type: DT_STRING
    }
  }
  attr {
    key: "_class"
    value {
      list {
        s: "loc:@train_input_fn/concat_2"
      }
    }
  }
  attr {
    key: "_output_shapes"
    value {
      list {
        shape {
          dim {
            size: -1
          }
        }
        shape {
          dim {
            size: -1
          }
        }
      }
    }
  }
}
node {
  name: "train_input_fn/bucket_queue/bucket/cond/cond/bucket_queue_0_enqueue"
  op: "QueueEnqueueV2"
  input: "train_input_fn/bucket_queue/bucket/cond/cond/bucket_queue_0_enqueue/Switch_1:1"
  input: "train_input_fn/bucket_queue/bucket/cond/cond/bucket_queue_0_enqueue/Switch_3:1"
  input: "train_input_fn/bucket_queue/bucket/cond/cond/bucket_queue_0_enqueue/Switch_3:1"
  input: "train_input_fn/bucket_queue/bucket/cond/cond/bucket_queue_0_enqueue/Switch_5:1"
  input: "train_input_fn/bucket_queue/bucket/cond/cond/bucket_queue_0_enqueue/Switch_7:1"
  input: "train_input_fn/bucket_queue/bucket/cond/cond/bucket_queue_0_enqueue/Switch_9:1"
  attr {
    key: "Tcomponents"
    value {
      list {
        type: DT_INT32
        type: DT_INT32
        type: DT_STRING
        type: DT_INT32
        type: DT_STRING
      }
    }
  }
  attr {
    key: "timeout_ms"
    value {
      i: -1
    }
  }
}
node {
  name: "train_input_fn/bucket_queue/bucket/cond/cond/control_dependency"
  op: "Identity"
  input: "train_input_fn/bucket_queue/bucket/cond/cond/switch_t"
  input: "^train_input_fn/bucket_queue/bucket/cond/cond/bucket_queue_0_enqueue"
  attr {
    key: "T"
    value {
      type: DT_BOOL
    }
  }
  attr {
    key: "_class"
    value {
      list {
        s: "loc:@train_input_fn/bucket_queue/bucket/cond/cond/switch_t"
      }
    }
  }
  attr {
    key: "_output_shapes"
    value {
      list {
        shape {
        }
      }
    }
  }
}
node {
  name: "train_input_fn/bucket_queue/bucket/cond/cond/NoOp"
  op: "NoOp"
  input: "^train_input_fn/bucket_queue/bucket/cond/cond/switch_f"
}
node {
  name: "train_input_fn/bucket_queue/bucket/cond/cond/control_dependency_1"
  op: "Identity"
  input: "train_input_fn/bucket_queue/bucket/cond/cond/switch_f"
  input: "^train_input_fn/bucket_queue/bucket/cond/cond/NoOp"
  attr {
    key: "T"
    value {
      type: DT_BOOL
    }
  }
  attr {
    key: "_class"
    value {
      list {
        s: "loc:@train_input_fn/bucket_queue/bucket/cond/cond/switch_f"
      }
    }
  }
  attr {
    key: "_output_shapes"
    value {
      list {
        shape {
        }
      }
    }
  }
}
node {
  name: "train_input_fn/bucket_queue/bucket/cond/cond/Merge"
  op: "Merge"
  input: "train_input_fn/bucket_queue/bucket/cond/cond/control_dependency_1"
  input: "train_input_fn/bucket_queue/bucket/cond/cond/control_dependency"
  attr {
    key: "N"
    value {
      i: 2
    }
  }
  attr {
    key: "T"
    value {
      type: DT_BOOL
    }
  }
  attr {
    key: "_output_shapes"
    value {
      list {
        shape {
        }
        shape {
        }
      }
    }
  }
}
node {
  name: "train_input_fn/bucket_queue/bucket/cond/Equal_1/y"
  op: "Const"
  input: "^train_input_fn/bucket_queue/bucket/cond/switch_t"
  attr {
    key: "_output_shapes"
    value {
      list {
        shape {
        }
      }
    }
  }
  attr {
    key: "dtype"
    value {
      type: DT_INT32
    }
  }
  attr {
    key: "value"
    value {
      tensor {
        dtype: DT_INT32
        tensor_shape {
        }
        int_val: 1
      }
    }
  }
}
node {
  name: "train_input_fn/bucket_queue/bucket/cond/Equal_1"
  op: "Equal"
  input: "train_input_fn/bucket_queue/bucket/cond/Equal/Switch:1"
  input: "train_input_fn/bucket_queue/bucket/cond/Equal_1/y"
  attr {
    key: "T"
    value {
      type: DT_INT32
    }
  }
  attr {
    key: "_output_shapes"
    value {
      list {
        shape {
        }
      }
    }
  }
}
node {
  name: "train_input_fn/bucket_queue/bucket/cond/cond_1/Switch"
  op: "Switch"
  input: "train_input_fn/bucket_queue/bucket/cond/Equal_1"
  input: "train_input_fn/bucket_queue/bucket/cond/Equal_1"
  attr {
    key: "T"
    value {
      type: DT_BOOL
    }
  }
  attr {
    key: "_output_shapes"
    value {
      list {
        shape {
        }
        shape {
        }
      }
    }
  }
}
node {
  name: "train_input_fn/bucket_queue/bucket/cond/cond_1/switch_t"
  op: "Identity"
  input: "train_input_fn/bucket_queue/bucket/cond/cond_1/Switch:1"
  attr {
    key: "T"
    value {
      type: DT_BOOL
    }
  }
  attr {
    key: "_output_shapes"
    value {
      list {
        shape {
        }
      }
    }
  }
}
node {
  name: "train_input_fn/bucket_queue/bucket/cond/cond_1/switch_f"
  op: "Identity"
  input: "train_input_fn/bucket_queue/bucket/cond/cond_1/Switch"
  attr {
    key: "T"
    value {
      type: DT_BOOL
    }
  }
  attr {
    key: "_output_shapes"
    value {
      list {
        shape {
        }
      }
    }
  }
}
node {
  name: "train_input_fn/bucket_queue/bucket/cond/cond_1/pred_id"
  op: "Identity"
  input: "train_input_fn/bucket_queue/bucket/cond/Equal_1"
  attr {
    key: "T"
    value {
      type: DT_BOOL
    }
  }
  attr {
    key: "_output_shapes"
    value {
      list {
        shape {
        }
      }
    }
  }
}
node {
  name: "train_input_fn/bucket_queue/bucket/cond/cond_1/bucket_queue_1_enqueue/Switch"
  op: "Switch"
  input: "train_input_fn/bucket_queue/bucket/bucket_queue_1"
  input: "train_input_fn/bucket_queue/bucket/cond/pred_id"
  attr {
    key: "T"
    value {
      type: DT_RESOURCE
    }
  }
  attr {
    key: "_class"
    value {
      list {
        s: "loc:@train_input_fn/bucket_queue/bucket/bucket_queue_1"
      }
    }
  }
  attr {
    key: "_output_shapes"
    value {
      list {
        shape {
        }
        shape {
        }
      }
    }
  }
}
node {
  name: "train_input_fn/bucket_queue/bucket/cond/cond_1/bucket_queue_1_enqueue/Switch_1"
  op: "Switch"
  input: "train_input_fn/bucket_queue/bucket/cond/cond_1/bucket_queue_1_enqueue/Switch:1"
  input: "train_input_fn/bucket_queue/bucket/cond/cond_1/pred_id"
  attr {
    key: "T"
    value {
      type: DT_RESOURCE
    }
  }
  attr {
    key: "_class"
    value {
      list {
        s: "loc:@train_input_fn/bucket_queue/bucket/bucket_queue_1"
      }
    }
  }
  attr {
    key: "_output_shapes"
    value {
      list {
        shape {
        }
        shape {
        }
      }
    }
  }
}
node {
  name: "train_input_fn/bucket_queue/bucket/cond/cond_1/bucket_queue_1_enqueue/Switch_2"
  op: "Switch"
  input: "train_input_fn/bucket_queue/bucket/cond/cond/bucket_queue_0_enqueue/Switch_2:1"
  input: "train_input_fn/bucket_queue/bucket/cond/cond_1/pred_id"
  attr {
    key: "T"
    value {
      type: DT_INT32
    }
  }
  attr {
    key: "_class"
    value {
      list {
        s: "loc:@train_input_fn/Size"
      }
    }
  }
  attr {
    key: "_output_shapes"
    value {
      list {
        shape {
        }
        shape {
        }
      }
    }
  }
}
node {
  name: "train_input_fn/bucket_queue/bucket/cond/cond_1/bucket_queue_1_enqueue/Switch_3"
  op: "Switch"
  input: "train_input_fn/bucket_queue/bucket/cond/cond/bucket_queue_0_enqueue/Switch_4:1"
  input: "train_input_fn/bucket_queue/bucket/cond/cond_1/pred_id"
  attr {
    key: "T"
    value {
      type: DT_STRING
    }
  }
  attr {
    key: "_class"
    value {
      list {
        s: "loc:@train_input_fn/concat"
      }
    }
  }
  attr {
    key: "_output_shapes"
    value {
      list {
        shape {
          dim {
            size: -1
          }
        }
        shape {
          dim {
            size: -1
          }
        }
      }
    }
  }
}
node {
  name: "train_input_fn/bucket_queue/bucket/cond/cond_1/bucket_queue_1_enqueue/Switch_4"
  op: "Switch"
  input: "train_input_fn/bucket_queue/bucket/cond/cond/bucket_queue_0_enqueue/Switch_6:1"
  input: "train_input_fn/bucket_queue/bucket/cond/cond_1/pred_id"
  attr {
    key: "T"
    value {
      type: DT_INT32
    }
  }
  attr {
    key: "_class"
    value {
      list {
        s: "loc:@train_input_fn/Size_1"
      }
    }
  }
  attr {
    key: "_output_shapes"
    value {
      list {
        shape {
        }
        shape {
        }
      }
    }
  }
}
node {
  name: "train_input_fn/bucket_queue/bucket/cond/cond_1/bucket_queue_1_enqueue/Switch_5"
  op: "Switch"
  input: "train_input_fn/bucket_queue/bucket/cond/cond/bucket_queue_0_enqueue/Switch_8:1"
  input: "train_input_fn/bucket_queue/bucket/cond/cond_1/pred_id"
  attr {
    key: "T"
    value {
      type: DT_STRING
    }
  }
  attr {
    key: "_class"
    value {
      list {
        s: "loc:@train_input_fn/concat_2"
      }
    }
  }
  attr {
    key: "_output_shapes"
    value {
      list {
        shape {
          dim {
            size: -1
          }
        }
        shape {
          dim {
            size: -1
          }
        }
      }
    }
  }
}
node {
  name: "train_input_fn/bucket_queue/bucket/cond/cond_1/bucket_queue_1_enqueue"
  op: "QueueEnqueueV2"
  input: "train_input_fn/bucket_queue/bucket/cond/cond_1/bucket_queue_1_enqueue/Switch_1:1"
  input: "train_input_fn/bucket_queue/bucket/cond/cond_1/bucket_queue_1_enqueue/Switch_2:1"
  input: "train_input_fn/bucket_queue/bucket/cond/cond_1/bucket_queue_1_enqueue/Switch_2:1"
  input: "train_input_fn/bucket_queue/bucket/cond/cond_1/bucket_queue_1_enqueue/Switch_3:1"
  input: "train_input_fn/bucket_queue/bucket/cond/cond_1/bucket_queue_1_enqueue/Switch_4:1"
  input: "train_input_fn/bucket_queue/bucket/cond/cond_1/bucket_queue_1_enqueue/Switch_5:1"
  attr {
    key: "Tcomponents"
    value {
      list {
        type: DT_INT32
        type: DT_INT32
        type: DT_STRING
        type: DT_INT32
        type: DT_STRING
      }
    }
  }
  attr {
    key: "timeout_ms"
    value {
      i: -1
    }
  }
}
node {
  name: "train_input_fn/bucket_queue/bucket/cond/cond_1/control_dependency"
  op: "Identity"
  input: "train_input_fn/bucket_queue/bucket/cond/cond_1/switch_t"
  input: "^train_input_fn/bucket_queue/bucket/cond/cond_1/bucket_queue_1_enqueue"
  attr {
    key: "T"
    value {
      type: DT_BOOL
    }
  }
  attr {
    key: "_class"
    value {
      list {
        s: "loc:@train_input_fn/bucket_queue/bucket/cond/cond_1/switch_t"
      }
    }
  }
  attr {
    key: "_output_shapes"
    value {
      list {
        shape {
        }
      }
    }
  }
}
node {
  name: "train_input_fn/bucket_queue/bucket/cond/cond_1/NoOp"
  op: "NoOp"
  input: "^train_input_fn/bucket_queue/bucket/cond/cond_1/switch_f"
}
node {
  name: "train_input_fn/bucket_queue/bucket/cond/cond_1/control_dependency_1"
  op: "Identity"
  input: "train_input_fn/bucket_queue/bucket/cond/cond_1/switch_f"
  input: "^train_input_fn/bucket_queue/bucket/cond/cond_1/NoOp"
  attr {
    key: "T"
    value {
      type: DT_BOOL
    }
  }
  attr {
    key: "_class"
    value {
      list {
        s: "loc:@train_input_fn/bucket_queue/bucket/cond/cond_1/switch_f"
      }
    }
  }
  attr {
    key: "_output_shapes"
    value {
      list {
        shape {
        }
      }
    }
  }
}
node {
  name: "train_input_fn/bucket_queue/bucket/cond/cond_1/Merge"
  op: "Merge"
  input: "train_input_fn/bucket_queue/bucket/cond/cond_1/control_dependency_1"
  input: "train_input_fn/bucket_queue/bucket/cond/cond_1/control_dependency"
  attr {
    key: "N"
    value {
      i: 2
    }
  }
  attr {
    key: "T"
    value {
      type: DT_BOOL
    }
  }
  attr {
    key: "_output_shapes"
    value {
      list {
        shape {
        }
        shape {
        }
      }
    }
  }
}
node {
  name: "train_input_fn/bucket_queue/bucket/cond/Equal_2/y"
  op: "Const"
  input: "^train_input_fn/bucket_queue/bucket/cond/switch_t"
  attr {
    key: "_output_shapes"
    value {
      list {
        shape {
        }
      }
    }
  }
  attr {
    key: "dtype"
    value {
      type: DT_INT32
    }
  }
  attr {
    key: "value"
    value {
      tensor {
        dtype: DT_INT32
        tensor_shape {
        }
        int_val: 2
      }
    }
  }
}
node {
  name: "train_input_fn/bucket_queue/bucket/cond/Equal_2"
  op: "Equal"
  input: "train_input_fn/bucket_queue/bucket/cond/Equal/Switch:1"
  input: "train_input_fn/bucket_queue/bucket/cond/Equal_2/y"
  attr {
    key: "T"
    value {
      type: DT_INT32
    }
  }
  attr {
    key: "_output_shapes"
    value {
      list {
        shape {
        }
      }
    }
  }
}
node {
  name: "train_input_fn/bucket_queue/bucket/cond/cond_2/Switch"
  op: "Switch"
  input: "train_input_fn/bucket_queue/bucket/cond/Equal_2"
  input: "train_input_fn/bucket_queue/bucket/cond/Equal_2"
  attr {
    key: "T"
    value {
      type: DT_BOOL
    }
  }
  attr {
    key: "_output_shapes"
    value {
      list {
        shape {
        }
        shape {
        }
      }
    }
  }
}
node {
  name: "train_input_fn/bucket_queue/bucket/cond/cond_2/switch_t"
  op: "Identity"
  input: "train_input_fn/bucket_queue/bucket/cond/cond_2/Switch:1"
  attr {
    key: "T"
    value {
      type: DT_BOOL
    }
  }
  attr {
    key: "_output_shapes"
    value {
      list {
        shape {
        }
      }
    }
  }
}
node {
  name: "train_input_fn/bucket_queue/bucket/cond/cond_2/switch_f"
  op: "Identity"
  input: "train_input_fn/bucket_queue/bucket/cond/cond_2/Switch"
  attr {
    key: "T"
    value {
      type: DT_BOOL
    }
  }
  attr {
    key: "_output_shapes"
    value {
      list {
        shape {
        }
      }
    }
  }
}
node {
  name: "train_input_fn/bucket_queue/bucket/cond/cond_2/pred_id"
  op: "Identity"
  input: "train_input_fn/bucket_queue/bucket/cond/Equal_2"
  attr {
    key: "T"
    value {
      type: DT_BOOL
    }
  }
  attr {
    key: "_output_shapes"
    value {
      list {
        shape {
        }
      }
    }
  }
}
node {
  name: "train_input_fn/bucket_queue/bucket/cond/cond_2/bucket_queue_2_enqueue/Switch"
  op: "Switch"
  input: "train_input_fn/bucket_queue/bucket/bucket_queue_2"
  input: "train_input_fn/bucket_queue/bucket/cond/pred_id"
  attr {
    key: "T"
    value {
      type: DT_RESOURCE
    }
  }
  attr {
    key: "_class"
    value {
      list {
        s: "loc:@train_input_fn/bucket_queue/bucket/bucket_queue_2"
      }
    }
  }
  attr {
    key: "_output_shapes"
    value {
      list {
        shape {
        }
        shape {
        }
      }
    }
  }
}
node {
  name: "train_input_fn/bucket_queue/bucket/cond/cond_2/bucket_queue_2_enqueue/Switch_1"
  op: "Switch"
  input: "train_input_fn/bucket_queue/bucket/cond/cond_2/bucket_queue_2_enqueue/Switch:1"
  input: "train_input_fn/bucket_queue/bucket/cond/cond_2/pred_id"
  attr {
    key: "T"
    value {
      type: DT_RESOURCE
    }
  }
  attr {
    key: "_class"
    value {
      list {
        s: "loc:@train_input_fn/bucket_queue/bucket/bucket_queue_2"
      }
    }
  }
  attr {
    key: "_output_shapes"
    value {
      list {
        shape {
        }
        shape {
        }
      }
    }
  }
}
node {
  name: "train_input_fn/bucket_queue/bucket/cond/cond_2/bucket_queue_2_enqueue/Switch_2"
  op: "Switch"
  input: "train_input_fn/bucket_queue/bucket/cond/cond/bucket_queue_0_enqueue/Switch_2:1"
  input: "train_input_fn/bucket_queue/bucket/cond/cond_2/pred_id"
  attr {
    key: "T"
    value {
      type: DT_INT32
    }
  }
  attr {
    key: "_class"
    value {
      list {
        s: "loc:@train_input_fn/Size"
      }
    }
  }
  attr {
    key: "_output_shapes"
    value {
      list {
        shape {
        }
        shape {
        }
      }
    }
  }
}
node {
  name: "train_input_fn/bucket_queue/bucket/cond/cond_2/bucket_queue_2_enqueue/Switch_3"
  op: "Switch"
  input: "train_input_fn/bucket_queue/bucket/cond/cond/bucket_queue_0_enqueue/Switch_4:1"
  input: "train_input_fn/bucket_queue/bucket/cond/cond_2/pred_id"
  attr {
    key: "T"
    value {
      type: DT_STRING
    }
  }
  attr {
    key: "_class"
    value {
      list {
        s: "loc:@train_input_fn/concat"
      }
    }
  }
  attr {
    key: "_output_shapes"
    value {
      list {
        shape {
          dim {
            size: -1
          }
        }
        shape {
          dim {
            size: -1
          }
        }
      }
    }
  }
}
node {
  name: "train_input_fn/bucket_queue/bucket/cond/cond_2/bucket_queue_2_enqueue/Switch_4"
  op: "Switch"
  input: "train_input_fn/bucket_queue/bucket/cond/cond/bucket_queue_0_enqueue/Switch_6:1"
  input: "train_input_fn/bucket_queue/bucket/cond/cond_2/pred_id"
  attr {
    key: "T"
    value {
      type: DT_INT32
    }
  }
  attr {
    key: "_class"
    value {
      list {
        s: "loc:@train_input_fn/Size_1"
      }
    }
  }
  attr {
    key: "_output_shapes"
    value {
      list {
        shape {
        }
        shape {
        }
      }
    }
  }
}
node {
  name: "train_input_fn/bucket_queue/bucket/cond/cond_2/bucket_queue_2_enqueue/Switch_5"
  op: "Switch"
  input: "train_input_fn/bucket_queue/bucket/cond/cond/bucket_queue_0_enqueue/Switch_8:1"
  input: "train_input_fn/bucket_queue/bucket/cond/cond_2/pred_id"
  attr {
    key: "T"
    value {
      type: DT_STRING
    }
  }
  attr {
    key: "_class"
    value {
      list {
        s: "loc:@train_input_fn/concat_2"
      }
    }
  }
  attr {
    key: "_output_shapes"
    value {
      list {
        shape {
          dim {
            size: -1
          }
        }
        shape {
          dim {
            size: -1
          }
        }
      }
    }
  }
}
node {
  name: "train_input_fn/bucket_queue/bucket/cond/cond_2/bucket_queue_2_enqueue"
  op: "QueueEnqueueV2"
  input: "train_input_fn/bucket_queue/bucket/cond/cond_2/bucket_queue_2_enqueue/Switch_1:1"
  input: "train_input_fn/bucket_queue/bucket/cond/cond_2/bucket_queue_2_enqueue/Switch_2:1"
  input: "train_input_fn/bucket_queue/bucket/cond/cond_2/bucket_queue_2_enqueue/Switch_2:1"
  input: "train_input_fn/bucket_queue/bucket/cond/cond_2/bucket_queue_2_enqueue/Switch_3:1"
  input: "train_input_fn/bucket_queue/bucket/cond/cond_2/bucket_queue_2_enqueue/Switch_4:1"
  input: "train_input_fn/bucket_queue/bucket/cond/cond_2/bucket_queue_2_enqueue/Switch_5:1"
  attr {
    key: "Tcomponents"
    value {
      list {
        type: DT_INT32
        type: DT_INT32
        type: DT_STRING
        type: DT_INT32
        type: DT_STRING
      }
    }
  }
  attr {
    key: "timeout_ms"
    value {
      i: -1
    }
  }
}
node {
  name: "train_input_fn/bucket_queue/bucket/cond/cond_2/control_dependency"
  op: "Identity"
  input: "train_input_fn/bucket_queue/bucket/cond/cond_2/switch_t"
  input: "^train_input_fn/bucket_queue/bucket/cond/cond_2/bucket_queue_2_enqueue"
  attr {
    key: "T"
    value {
      type: DT_BOOL
    }
  }
  attr {
    key: "_class"
    value {
      list {
        s: "loc:@train_input_fn/bucket_queue/bucket/cond/cond_2/switch_t"
      }
    }
  }
  attr {
    key: "_output_shapes"
    value {
      list {
        shape {
        }
      }
    }
  }
}
node {
  name: "train_input_fn/bucket_queue/bucket/cond/cond_2/NoOp"
  op: "NoOp"
  input: "^train_input_fn/bucket_queue/bucket/cond/cond_2/switch_f"
}
node {
  name: "train_input_fn/bucket_queue/bucket/cond/cond_2/control_dependency_1"
  op: "Identity"
  input: "train_input_fn/bucket_queue/bucket/cond/cond_2/switch_f"
  input: "^train_input_fn/bucket_queue/bucket/cond/cond_2/NoOp"
  attr {
    key: "T"
    value {
      type: DT_BOOL
    }
  }
  attr {
    key: "_class"
    value {
      list {
        s: "loc:@train_input_fn/bucket_queue/bucket/cond/cond_2/switch_f"
      }
    }
  }
  attr {
    key: "_output_shapes"
    value {
      list {
        shape {
        }
      }
    }
  }
}
node {
  name: "train_input_fn/bucket_queue/bucket/cond/cond_2/Merge"
  op: "Merge"
  input: "train_input_fn/bucket_queue/bucket/cond/cond_2/control_dependency_1"
  input: "train_input_fn/bucket_queue/bucket/cond/cond_2/control_dependency"
  attr {
    key: "N"
    value {
      i: 2
    }
  }
  attr {
    key: "T"
    value {
      type: DT_BOOL
    }
  }
  attr {
    key: "_output_shapes"
    value {
      list {
        shape {
        }
        shape {
        }
      }
    }
  }
}
node {
  name: "train_input_fn/bucket_queue/bucket/cond/Equal_3/y"
  op: "Const"
  input: "^train_input_fn/bucket_queue/bucket/cond/switch_t"
  attr {
    key: "_output_shapes"
    value {
      list {
        shape {
        }
      }
    }
  }
  attr {
    key: "dtype"
    value {
      type: DT_INT32
    }
  }
  attr {
    key: "value"
    value {
      tensor {
        dtype: DT_INT32
        tensor_shape {
        }
        int_val: 3
      }
    }
  }
}
node {
  name: "train_input_fn/bucket_queue/bucket/cond/Equal_3"
  op: "Equal"
  input: "train_input_fn/bucket_queue/bucket/cond/Equal/Switch:1"
  input: "train_input_fn/bucket_queue/bucket/cond/Equal_3/y"
  attr {
    key: "T"
    value {
      type: DT_INT32
    }
  }
  attr {
    key: "_output_shapes"
    value {
      list {
        shape {
        }
      }
    }
  }
}
node {
  name: "train_input_fn/bucket_queue/bucket/cond/cond_3/Switch"
  op: "Switch"
  input: "train_input_fn/bucket_queue/bucket/cond/Equal_3"
  input: "train_input_fn/bucket_queue/bucket/cond/Equal_3"
  attr {
    key: "T"
    value {
      type: DT_BOOL
    }
  }
  attr {
    key: "_output_shapes"
    value {
      list {
        shape {
        }
        shape {
        }
      }
    }
  }
}
node {
  name: "train_input_fn/bucket_queue/bucket/cond/cond_3/switch_t"
  op: "Identity"
  input: "train_input_fn/bucket_queue/bucket/cond/cond_3/Switch:1"
  attr {
    key: "T"
    value {
      type: DT_BOOL
    }
  }
  attr {
    key: "_output_shapes"
    value {
      list {
        shape {
        }
      }
    }
  }
}
node {
  name: "train_input_fn/bucket_queue/bucket/cond/cond_3/switch_f"
  op: "Identity"
  input: "train_input_fn/bucket_queue/bucket/cond/cond_3/Switch"
  attr {
    key: "T"
    value {
      type: DT_BOOL
    }
  }
  attr {
    key: "_output_shapes"
    value {
      list {
        shape {
        }
      }
    }
  }
}
node {
  name: "train_input_fn/bucket_queue/bucket/cond/cond_3/pred_id"
  op: "Identity"
  input: "train_input_fn/bucket_queue/bucket/cond/Equal_3"
  attr {
    key: "T"
    value {
      type: DT_BOOL
    }
  }
  attr {
    key: "_output_shapes"
    value {
      list {
        shape {
        }
      }
    }
  }
}
node {
  name: "train_input_fn/bucket_queue/bucket/cond/cond_3/bucket_queue_3_enqueue/Switch"
  op: "Switch"
  input: "train_input_fn/bucket_queue/bucket/bucket_queue_3"
  input: "train_input_fn/bucket_queue/bucket/cond/pred_id"
  attr {
    key: "T"
    value {
      type: DT_RESOURCE
    }
  }
  attr {
    key: "_class"
    value {
      list {
        s: "loc:@train_input_fn/bucket_queue/bucket/bucket_queue_3"
      }
    }
  }
  attr {
    key: "_output_shapes"
    value {
      list {
        shape {
        }
        shape {
        }
      }
    }
  }
}
node {
  name: "train_input_fn/bucket_queue/bucket/cond/cond_3/bucket_queue_3_enqueue/Switch_1"
  op: "Switch"
  input: "train_input_fn/bucket_queue/bucket/cond/cond_3/bucket_queue_3_enqueue/Switch:1"
  input: "train_input_fn/bucket_queue/bucket/cond/cond_3/pred_id"
  attr {
    key: "T"
    value {
      type: DT_RESOURCE
    }
  }
  attr {
    key: "_class"
    value {
      list {
        s: "loc:@train_input_fn/bucket_queue/bucket/bucket_queue_3"
      }
    }
  }
  attr {
    key: "_output_shapes"
    value {
      list {
        shape {
        }
        shape {
        }
      }
    }
  }
}
node {
  name: "train_input_fn/bucket_queue/bucket/cond/cond_3/bucket_queue_3_enqueue/Switch_2"
  op: "Switch"
  input: "train_input_fn/bucket_queue/bucket/cond/cond/bucket_queue_0_enqueue/Switch_2:1"
  input: "train_input_fn/bucket_queue/bucket/cond/cond_3/pred_id"
  attr {
    key: "T"
    value {
      type: DT_INT32
    }
  }
  attr {
    key: "_class"
    value {
      list {
        s: "loc:@train_input_fn/Size"
      }
    }
  }
  attr {
    key: "_output_shapes"
    value {
      list {
        shape {
        }
        shape {
        }
      }
    }
  }
}
node {
  name: "train_input_fn/bucket_queue/bucket/cond/cond_3/bucket_queue_3_enqueue/Switch_3"
  op: "Switch"
  input: "train_input_fn/bucket_queue/bucket/cond/cond/bucket_queue_0_enqueue/Switch_4:1"
  input: "train_input_fn/bucket_queue/bucket/cond/cond_3/pred_id"
  attr {
    key: "T"
    value {
      type: DT_STRING
    }
  }
  attr {
    key: "_class"
    value {
      list {
        s: "loc:@train_input_fn/concat"
      }
    }
  }
  attr {
    key: "_output_shapes"
    value {
      list {
        shape {
          dim {
            size: -1
          }
        }
        shape {
          dim {
            size: -1
          }
        }
      }
    }
  }
}
node {
  name: "train_input_fn/bucket_queue/bucket/cond/cond_3/bucket_queue_3_enqueue/Switch_4"
  op: "Switch"
  input: "train_input_fn/bucket_queue/bucket/cond/cond/bucket_queue_0_enqueue/Switch_6:1"
  input: "train_input_fn/bucket_queue/bucket/cond/cond_3/pred_id"
  attr {
    key: "T"
    value {
      type: DT_INT32
    }
  }
  attr {
    key: "_class"
    value {
      list {
        s: "loc:@train_input_fn/Size_1"
      }
    }
  }
  attr {
    key: "_output_shapes"
    value {
      list {
        shape {
        }
        shape {
        }
      }
    }
  }
}
node {
  name: "train_input_fn/bucket_queue/bucket/cond/cond_3/bucket_queue_3_enqueue/Switch_5"
  op: "Switch"
  input: "train_input_fn/bucket_queue/bucket/cond/cond/bucket_queue_0_enqueue/Switch_8:1"
  input: "train_input_fn/bucket_queue/bucket/cond/cond_3/pred_id"
  attr {
    key: "T"
    value {
      type: DT_STRING
    }
  }
  attr {
    key: "_class"
    value {
      list {
        s: "loc:@train_input_fn/concat_2"
      }
    }
  }
  attr {
    key: "_output_shapes"
    value {
      list {
        shape {
          dim {
            size: -1
          }
        }
        shape {
          dim {
            size: -1
          }
        }
      }
    }
  }
}
node {
  name: "train_input_fn/bucket_queue/bucket/cond/cond_3/bucket_queue_3_enqueue"
  op: "QueueEnqueueV2"
  input: "train_input_fn/bucket_queue/bucket/cond/cond_3/bucket_queue_3_enqueue/Switch_1:1"
  input: "train_input_fn/bucket_queue/bucket/cond/cond_3/bucket_queue_3_enqueue/Switch_2:1"
  input: "train_input_fn/bucket_queue/bucket/cond/cond_3/bucket_queue_3_enqueue/Switch_2:1"
  input: "train_input_fn/bucket_queue/bucket/cond/cond_3/bucket_queue_3_enqueue/Switch_3:1"
  input: "train_input_fn/bucket_queue/bucket/cond/cond_3/bucket_queue_3_enqueue/Switch_4:1"
  input: "train_input_fn/bucket_queue/bucket/cond/cond_3/bucket_queue_3_enqueue/Switch_5:1"
  attr {
    key: "Tcomponents"
    value {
      list {
        type: DT_INT32
        type: DT_INT32
        type: DT_STRING
        type: DT_INT32
        type: DT_STRING
      }
    }
  }
  attr {
    key: "timeout_ms"
    value {
      i: -1
    }
  }
}
node {
  name: "train_input_fn/bucket_queue/bucket/cond/cond_3/control_dependency"
  op: "Identity"
  input: "train_input_fn/bucket_queue/bucket/cond/cond_3/switch_t"
  input: "^train_input_fn/bucket_queue/bucket/cond/cond_3/bucket_queue_3_enqueue"
  attr {
    key: "T"
    value {
      type: DT_BOOL
    }
  }
  attr {
    key: "_class"
    value {
      list {
        s: "loc:@train_input_fn/bucket_queue/bucket/cond/cond_3/switch_t"
      }
    }
  }
  attr {
    key: "_output_shapes"
    value {
      list {
        shape {
        }
      }
    }
  }
}
node {
  name: "train_input_fn/bucket_queue/bucket/cond/cond_3/NoOp"
  op: "NoOp"
  input: "^train_input_fn/bucket_queue/bucket/cond/cond_3/switch_f"
}
node {
  name: "train_input_fn/bucket_queue/bucket/cond/cond_3/control_dependency_1"
  op: "Identity"
  input: "train_input_fn/bucket_queue/bucket/cond/cond_3/switch_f"
  input: "^train_input_fn/bucket_queue/bucket/cond/cond_3/NoOp"
  attr {
    key: "T"
    value {
      type: DT_BOOL
    }
  }
  attr {
    key: "_class"
    value {
      list {
        s: "loc:@train_input_fn/bucket_queue/bucket/cond/cond_3/switch_f"
      }
    }
  }
  attr {
    key: "_output_shapes"
    value {
      list {
        shape {
        }
      }
    }
  }
}
node {
  name: "train_input_fn/bucket_queue/bucket/cond/cond_3/Merge"
  op: "Merge"
  input: "train_input_fn/bucket_queue/bucket/cond/cond_3/control_dependency_1"
  input: "train_input_fn/bucket_queue/bucket/cond/cond_3/control_dependency"
  attr {
    key: "N"
    value {
      i: 2
    }
  }
  attr {
    key: "T"
    value {
      type: DT_BOOL
    }
  }
  attr {
    key: "_output_shapes"
    value {
      list {
        shape {
        }
        shape {
        }
      }
    }
  }
}
node {
  name: "train_input_fn/bucket_queue/bucket/cond/Equal_4/y"
  op: "Const"
  input: "^train_input_fn/bucket_queue/bucket/cond/switch_t"
  attr {
    key: "_output_shapes"
    value {
      list {
        shape {
        }
      }
    }
  }
  attr {
    key: "dtype"
    value {
      type: DT_INT32
    }
  }
  attr {
    key: "value"
    value {
      tensor {
        dtype: DT_INT32
        tensor_shape {
        }
        int_val: 4
      }
    }
  }
}
node {
  name: "train_input_fn/bucket_queue/bucket/cond/Equal_4"
  op: "Equal"
  input: "train_input_fn/bucket_queue/bucket/cond/Equal/Switch:1"
  input: "train_input_fn/bucket_queue/bucket/cond/Equal_4/y"
  attr {
    key: "T"
    value {
      type: DT_INT32
    }
  }
  attr {
    key: "_output_shapes"
    value {
      list {
        shape {
        }
      }
    }
  }
}
node {
  name: "train_input_fn/bucket_queue/bucket/cond/cond_4/Switch"
  op: "Switch"
  input: "train_input_fn/bucket_queue/bucket/cond/Equal_4"
  input: "train_input_fn/bucket_queue/bucket/cond/Equal_4"
  attr {
    key: "T"
    value {
      type: DT_BOOL
    }
  }
  attr {
    key: "_output_shapes"
    value {
      list {
        shape {
        }
        shape {
        }
      }
    }
  }
}
node {
  name: "train_input_fn/bucket_queue/bucket/cond/cond_4/switch_t"
  op: "Identity"
  input: "train_input_fn/bucket_queue/bucket/cond/cond_4/Switch:1"
  attr {
    key: "T"
    value {
      type: DT_BOOL
    }
  }
  attr {
    key: "_output_shapes"
    value {
      list {
        shape {
        }
      }
    }
  }
}
node {
  name: "train_input_fn/bucket_queue/bucket/cond/cond_4/switch_f"
  op: "Identity"
  input: "train_input_fn/bucket_queue/bucket/cond/cond_4/Switch"
  attr {
    key: "T"
    value {
      type: DT_BOOL
    }
  }
  attr {
    key: "_output_shapes"
    value {
      list {
        shape {
        }
      }
    }
  }
}
node {
  name: "train_input_fn/bucket_queue/bucket/cond/cond_4/pred_id"
  op: "Identity"
  input: "train_input_fn/bucket_queue/bucket/cond/Equal_4"
  attr {
    key: "T"
    value {
      type: DT_BOOL
    }
  }
  attr {
    key: "_output_shapes"
    value {
      list {
        shape {
        }
      }
    }
  }
}
node {
  name: "train_input_fn/bucket_queue/bucket/cond/cond_4/bucket_queue_4_enqueue/Switch"
  op: "Switch"
  input: "train_input_fn/bucket_queue/bucket/bucket_queue_4"
  input: "train_input_fn/bucket_queue/bucket/cond/pred_id"
  attr {
    key: "T"
    value {
      type: DT_RESOURCE
    }
  }
  attr {
    key: "_class"
    value {
      list {
        s: "loc:@train_input_fn/bucket_queue/bucket/bucket_queue_4"
      }
    }
  }
  attr {
    key: "_output_shapes"
    value {
      list {
        shape {
        }
        shape {
        }
      }
    }
  }
}
node {
  name: "train_input_fn/bucket_queue/bucket/cond/cond_4/bucket_queue_4_enqueue/Switch_1"
  op: "Switch"
  input: "train_input_fn/bucket_queue/bucket/cond/cond_4/bucket_queue_4_enqueue/Switch:1"
  input: "train_input_fn/bucket_queue/bucket/cond/cond_4/pred_id"
  attr {
    key: "T"
    value {
      type: DT_RESOURCE
    }
  }
  attr {
    key: "_class"
    value {
      list {
        s: "loc:@train_input_fn/bucket_queue/bucket/bucket_queue_4"
      }
    }
  }
  attr {
    key: "_output_shapes"
    value {
      list {
        shape {
        }
        shape {
        }
      }
    }
  }
}
node {
  name: "train_input_fn/bucket_queue/bucket/cond/cond_4/bucket_queue_4_enqueue/Switch_2"
  op: "Switch"
  input: "train_input_fn/bucket_queue/bucket/cond/cond/bucket_queue_0_enqueue/Switch_2:1"
  input: "train_input_fn/bucket_queue/bucket/cond/cond_4/pred_id"
  attr {
    key: "T"
    value {
      type: DT_INT32
    }
  }
  attr {
    key: "_class"
    value {
      list {
        s: "loc:@train_input_fn/Size"
      }
    }
  }
  attr {
    key: "_output_shapes"
    value {
      list {
        shape {
        }
        shape {
        }
      }
    }
  }
}
node {
  name: "train_input_fn/bucket_queue/bucket/cond/cond_4/bucket_queue_4_enqueue/Switch_3"
  op: "Switch"
  input: "train_input_fn/bucket_queue/bucket/cond/cond/bucket_queue_0_enqueue/Switch_4:1"
  input: "train_input_fn/bucket_queue/bucket/cond/cond_4/pred_id"
  attr {
    key: "T"
    value {
      type: DT_STRING
    }
  }
  attr {
    key: "_class"
    value {
      list {
        s: "loc:@train_input_fn/concat"
      }
    }
  }
  attr {
    key: "_output_shapes"
    value {
      list {
        shape {
          dim {
            size: -1
          }
        }
        shape {
          dim {
            size: -1
          }
        }
      }
    }
  }
}
node {
  name: "train_input_fn/bucket_queue/bucket/cond/cond_4/bucket_queue_4_enqueue/Switch_4"
  op: "Switch"
  input: "train_input_fn/bucket_queue/bucket/cond/cond/bucket_queue_0_enqueue/Switch_6:1"
  input: "train_input_fn/bucket_queue/bucket/cond/cond_4/pred_id"
  attr {
    key: "T"
    value {
      type: DT_INT32
    }
  }
  attr {
    key: "_class"
    value {
      list {
        s: "loc:@train_input_fn/Size_1"
      }
    }
  }
  attr {
    key: "_output_shapes"
    value {
      list {
        shape {
        }
        shape {
        }
      }
    }
  }
}
node {
  name: "train_input_fn/bucket_queue/bucket/cond/cond_4/bucket_queue_4_enqueue/Switch_5"
  op: "Switch"
  input: "train_input_fn/bucket_queue/bucket/cond/cond/bucket_queue_0_enqueue/Switch_8:1"
  input: "train_input_fn/bucket_queue/bucket/cond/cond_4/pred_id"
  attr {
    key: "T"
    value {
      type: DT_STRING
    }
  }
  attr {
    key: "_class"
    value {
      list {
        s: "loc:@train_input_fn/concat_2"
      }
    }
  }
  attr {
    key: "_output_shapes"
    value {
      list {
        shape {
          dim {
            size: -1
          }
        }
        shape {
          dim {
            size: -1
          }
        }
      }
    }
  }
}
node {
  name: "train_input_fn/bucket_queue/bucket/cond/cond_4/bucket_queue_4_enqueue"
  op: "QueueEnqueueV2"
  input: "train_input_fn/bucket_queue/bucket/cond/cond_4/bucket_queue_4_enqueue/Switch_1:1"
  input: "train_input_fn/bucket_queue/bucket/cond/cond_4/bucket_queue_4_enqueue/Switch_2:1"
  input: "train_input_fn/bucket_queue/bucket/cond/cond_4/bucket_queue_4_enqueue/Switch_2:1"
  input: "train_input_fn/bucket_queue/bucket/cond/cond_4/bucket_queue_4_enqueue/Switch_3:1"
  input: "train_input_fn/bucket_queue/bucket/cond/cond_4/bucket_queue_4_enqueue/Switch_4:1"
  input: "train_input_fn/bucket_queue/bucket/cond/cond_4/bucket_queue_4_enqueue/Switch_5:1"
  attr {
    key: "Tcomponents"
    value {
      list {
        type: DT_INT32
        type: DT_INT32
        type: DT_STRING
        type: DT_INT32
        type: DT_STRING
      }
    }
  }
  attr {
    key: "timeout_ms"
    value {
      i: -1
    }
  }
}
node {
  name: "train_input_fn/bucket_queue/bucket/cond/cond_4/control_dependency"
  op: "Identity"
  input: "train_input_fn/bucket_queue/bucket/cond/cond_4/switch_t"
  input: "^train_input_fn/bucket_queue/bucket/cond/cond_4/bucket_queue_4_enqueue"
  attr {
    key: "T"
    value {
      type: DT_BOOL
    }
  }
  attr {
    key: "_class"
    value {
      list {
        s: "loc:@train_input_fn/bucket_queue/bucket/cond/cond_4/switch_t"
      }
    }
  }
  attr {
    key: "_output_shapes"
    value {
      list {
        shape {
        }
      }
    }
  }
}
node {
  name: "train_input_fn/bucket_queue/bucket/cond/cond_4/NoOp"
  op: "NoOp"
  input: "^train_input_fn/bucket_queue/bucket/cond/cond_4/switch_f"
}
node {
  name: "train_input_fn/bucket_queue/bucket/cond/cond_4/control_dependency_1"
  op: "Identity"
  input: "train_input_fn/bucket_queue/bucket/cond/cond_4/switch_f"
  input: "^train_input_fn/bucket_queue/bucket/cond/cond_4/NoOp"
  attr {
    key: "T"
    value {
      type: DT_BOOL
    }
  }
  attr {
    key: "_class"
    value {
      list {
        s: "loc:@train_input_fn/bucket_queue/bucket/cond/cond_4/switch_f"
      }
    }
  }
  attr {
    key: "_output_shapes"
    value {
      list {
        shape {
        }
      }
    }
  }
}
node {
  name: "train_input_fn/bucket_queue/bucket/cond/cond_4/Merge"
  op: "Merge"
  input: "train_input_fn/bucket_queue/bucket/cond/cond_4/control_dependency_1"
  input: "train_input_fn/bucket_queue/bucket/cond/cond_4/control_dependency"
  attr {
    key: "N"
    value {
      i: 2
    }
  }
  attr {
    key: "T"
    value {
      type: DT_BOOL
    }
  }
  attr {
    key: "_output_shapes"
    value {
      list {
        shape {
        }
        shape {
        }
      }
    }
  }
}
node {
  name: "train_input_fn/bucket_queue/bucket/cond/group_enqueues"
  op: "NoOp"
  input: "^train_input_fn/bucket_queue/bucket/cond/cond/Merge"
  input: "^train_input_fn/bucket_queue/bucket/cond/cond_1/Merge"
  input: "^train_input_fn/bucket_queue/bucket/cond/cond_2/Merge"
  input: "^train_input_fn/bucket_queue/bucket/cond/cond_3/Merge"
  input: "^train_input_fn/bucket_queue/bucket/cond/cond_4/Merge"
  input: "^train_input_fn/bucket_queue/bucket/cond/switch_t"
}
node {
  name: "train_input_fn/bucket_queue/bucket/cond/control_dependency"
  op: "Identity"
  input: "train_input_fn/bucket_queue/bucket/cond/switch_t"
  input: "^train_input_fn/bucket_queue/bucket/cond/group_enqueues"
  attr {
    key: "T"
    value {
      type: DT_BOOL
    }
  }
  attr {
    key: "_class"
    value {
      list {
        s: "loc:@train_input_fn/bucket_queue/bucket/cond/switch_t"
      }
    }
  }
  attr {
    key: "_output_shapes"
    value {
      list {
        shape {
        }
      }
    }
  }
}
node {
  name: "train_input_fn/bucket_queue/bucket/cond/NoOp"
  op: "NoOp"
  input: "^train_input_fn/bucket_queue/bucket/cond/switch_f"
}
node {
  name: "train_input_fn/bucket_queue/bucket/cond/control_dependency_1"
  op: "Identity"
  input: "train_input_fn/bucket_queue/bucket/cond/switch_f"
  input: "^train_input_fn/bucket_queue/bucket/cond/NoOp"
  attr {
    key: "T"
    value {
      type: DT_BOOL
    }
  }
  attr {
    key: "_class"
    value {
      list {
        s: "loc:@train_input_fn/bucket_queue/bucket/cond/switch_f"
      }
    }
  }
  attr {
    key: "_output_shapes"
    value {
      list {
        shape {
        }
      }
    }
  }
}
node {
  name: "train_input_fn/bucket_queue/bucket/cond/Merge"
  op: "Merge"
  input: "train_input_fn/bucket_queue/bucket/cond/control_dependency_1"
  input: "train_input_fn/bucket_queue/bucket/cond/control_dependency"
  attr {
    key: "N"
    value {
      i: 2
    }
  }
  attr {
    key: "T"
    value {
      type: DT_BOOL
    }
  }
  attr {
    key: "_output_shapes"
    value {
      list {
        shape {
        }
        shape {
        }
      }
    }
  }
}
node {
  name: "train_input_fn/bucket_queue/bucket/Const_1"
  op: "Const"
  attr {
    key: "_output_shapes"
    value {
      list {
        shape {
        }
      }
    }
  }
  attr {
    key: "dtype"
    value {
      type: DT_INT32
    }
  }
  attr {
    key: "value"
    value {
      tensor {
        dtype: DT_INT32
        tensor_shape {
        }
        int_val: 0
      }
    }
  }
}
node {
  name: "train_input_fn/bucket_queue/bucket/read_bucket_0/n"
  op: "Const"
  attr {
    key: "_output_shapes"
    value {
      list {
        shape {
        }
      }
    }
  }
  attr {
    key: "dtype"
    value {
      type: DT_INT32
    }
  }
  attr {
    key: "value"
    value {
      tensor {
        dtype: DT_INT32
        tensor_shape {
        }
        int_val: 32
      }
    }
  }
}
node {
  name: "train_input_fn/bucket_queue/bucket/read_bucket_0"
  op: "QueueDequeueManyV2"
  input: "train_input_fn/bucket_queue/bucket/bucket_queue_0"
  input: "train_input_fn/bucket_queue/bucket/read_bucket_0/n"
  attr {
    key: "_output_shapes"
    value {
      list {
        shape {
          dim {
            size: 32
          }
        }
        shape {
          dim {
            size: 32
          }
        }
        shape {
          dim {
            size: 32
          }
          dim {
            size: -1
          }
        }
        shape {
          dim {
            size: 32
          }
        }
        shape {
          dim {
            size: 32
          }
          dim {
            size: -1
          }
        }
      }
    }
  }
  attr {
    key: "component_types"
    value {
      list {
        type: DT_INT32
        type: DT_INT32
        type: DT_STRING
        type: DT_INT32
        type: DT_STRING
      }
    }
  }
  attr {
    key: "timeout_ms"
    value {
      i: -1
    }
  }
}
node {
  name: "train_input_fn/bucket_queue/bucket/enqueue_from_bucket_0"
  op: "QueueEnqueueV2"
  input: "train_input_fn/bucket_queue/bucket/top_queue"
  input: "train_input_fn/bucket_queue/bucket/Const_1"
  input: "train_input_fn/bucket_queue/bucket/read_bucket_0"
  input: "train_input_fn/bucket_queue/bucket/read_bucket_0:1"
  input: "train_input_fn/bucket_queue/bucket/read_bucket_0:2"
  input: "train_input_fn/bucket_queue/bucket/read_bucket_0:3"
  input: "train_input_fn/bucket_queue/bucket/read_bucket_0:4"
  attr {
    key: "Tcomponents"
    value {
      list {
        type: DT_INT32
        type: DT_INT32
        type: DT_INT32
        type: DT_STRING
        type: DT_INT32
        type: DT_STRING
      }
    }
  }
  attr {
    key: "timeout_ms"
    value {
      i: -1
    }
  }
}
node {
  name: "train_input_fn/bucket_queue/bucket/Const_2"
  op: "Const"
  attr {
    key: "_output_shapes"
    value {
      list {
        shape {
        }
      }
    }
  }
  attr {
    key: "dtype"
    value {
      type: DT_INT32
    }
  }
  attr {
    key: "value"
    value {
      tensor {
        dtype: DT_INT32
        tensor_shape {
        }
        int_val: 1
      }
    }
  }
}
node {
  name: "train_input_fn/bucket_queue/bucket/read_bucket_1/n"
  op: "Const"
  attr {
    key: "_output_shapes"
    value {
      list {
        shape {
        }
      }
    }
  }
  attr {
    key: "dtype"
    value {
      type: DT_INT32
    }
  }
  attr {
    key: "value"
    value {
      tensor {
        dtype: DT_INT32
        tensor_shape {
        }
        int_val: 32
      }
    }
  }
}
node {
  name: "train_input_fn/bucket_queue/bucket/read_bucket_1"
  op: "QueueDequeueManyV2"
  input: "train_input_fn/bucket_queue/bucket/bucket_queue_1"
  input: "train_input_fn/bucket_queue/bucket/read_bucket_1/n"
  attr {
    key: "_output_shapes"
    value {
      list {
        shape {
          dim {
            size: 32
          }
        }
        shape {
          dim {
            size: 32
          }
        }
        shape {
          dim {
            size: 32
          }
          dim {
            size: -1
          }
        }
        shape {
          dim {
            size: 32
          }
        }
        shape {
          dim {
            size: 32
          }
          dim {
            size: -1
          }
        }
      }
    }
  }
  attr {
    key: "component_types"
    value {
      list {
        type: DT_INT32
        type: DT_INT32
        type: DT_STRING
        type: DT_INT32
        type: DT_STRING
      }
    }
  }
  attr {
    key: "timeout_ms"
    value {
      i: -1
    }
  }
}
node {
  name: "train_input_fn/bucket_queue/bucket/enqueue_from_bucket_1"
  op: "QueueEnqueueV2"
  input: "train_input_fn/bucket_queue/bucket/top_queue"
  input: "train_input_fn/bucket_queue/bucket/Const_2"
  input: "train_input_fn/bucket_queue/bucket/read_bucket_1"
  input: "train_input_fn/bucket_queue/bucket/read_bucket_1:1"
  input: "train_input_fn/bucket_queue/bucket/read_bucket_1:2"
  input: "train_input_fn/bucket_queue/bucket/read_bucket_1:3"
  input: "train_input_fn/bucket_queue/bucket/read_bucket_1:4"
  attr {
    key: "Tcomponents"
    value {
      list {
        type: DT_INT32
        type: DT_INT32
        type: DT_INT32
        type: DT_STRING
        type: DT_INT32
        type: DT_STRING
      }
    }
  }
  attr {
    key: "timeout_ms"
    value {
      i: -1
    }
  }
}
node {
  name: "train_input_fn/bucket_queue/bucket/Const_3"
  op: "Const"
  attr {
    key: "_output_shapes"
    value {
      list {
        shape {
        }
      }
    }
  }
  attr {
    key: "dtype"
    value {
      type: DT_INT32
    }
  }
  attr {
    key: "value"
    value {
      tensor {
        dtype: DT_INT32
        tensor_shape {
        }
        int_val: 2
      }
    }
  }
}
node {
  name: "train_input_fn/bucket_queue/bucket/read_bucket_2/n"
  op: "Const"
  attr {
    key: "_output_shapes"
    value {
      list {
        shape {
        }
      }
    }
  }
  attr {
    key: "dtype"
    value {
      type: DT_INT32
    }
  }
  attr {
    key: "value"
    value {
      tensor {
        dtype: DT_INT32
        tensor_shape {
        }
        int_val: 32
      }
    }
  }
}
node {
  name: "train_input_fn/bucket_queue/bucket/read_bucket_2"
  op: "QueueDequeueManyV2"
  input: "train_input_fn/bucket_queue/bucket/bucket_queue_2"
  input: "train_input_fn/bucket_queue/bucket/read_bucket_2/n"
  attr {
    key: "_output_shapes"
    value {
      list {
        shape {
          dim {
            size: 32
          }
        }
        shape {
          dim {
            size: 32
          }
        }
        shape {
          dim {
            size: 32
          }
          dim {
            size: -1
          }
        }
        shape {
          dim {
            size: 32
          }
        }
        shape {
          dim {
            size: 32
          }
          dim {
            size: -1
          }
        }
      }
    }
  }
  attr {
    key: "component_types"
    value {
      list {
        type: DT_INT32
        type: DT_INT32
        type: DT_STRING
        type: DT_INT32
        type: DT_STRING
      }
    }
  }
  attr {
    key: "timeout_ms"
    value {
      i: -1
    }
  }
}
node {
  name: "train_input_fn/bucket_queue/bucket/enqueue_from_bucket_2"
  op: "QueueEnqueueV2"
  input: "train_input_fn/bucket_queue/bucket/top_queue"
  input: "train_input_fn/bucket_queue/bucket/Const_3"
  input: "train_input_fn/bucket_queue/bucket/read_bucket_2"
  input: "train_input_fn/bucket_queue/bucket/read_bucket_2:1"
  input: "train_input_fn/bucket_queue/bucket/read_bucket_2:2"
  input: "train_input_fn/bucket_queue/bucket/read_bucket_2:3"
  input: "train_input_fn/bucket_queue/bucket/read_bucket_2:4"
  attr {
    key: "Tcomponents"
    value {
      list {
        type: DT_INT32
        type: DT_INT32
        type: DT_INT32
        type: DT_STRING
        type: DT_INT32
        type: DT_STRING
      }
    }
  }
  attr {
    key: "timeout_ms"
    value {
      i: -1
    }
  }
}
node {
  name: "train_input_fn/bucket_queue/bucket/Const_4"
  op: "Const"
  attr {
    key: "_output_shapes"
    value {
      list {
        shape {
        }
      }
    }
  }
  attr {
    key: "dtype"
    value {
      type: DT_INT32
    }
  }
  attr {
    key: "value"
    value {
      tensor {
        dtype: DT_INT32
        tensor_shape {
        }
        int_val: 3
      }
    }
  }
}
node {
  name: "train_input_fn/bucket_queue/bucket/read_bucket_3/n"
  op: "Const"
  attr {
    key: "_output_shapes"
    value {
      list {
        shape {
        }
      }
    }
  }
  attr {
    key: "dtype"
    value {
      type: DT_INT32
    }
  }
  attr {
    key: "value"
    value {
      tensor {
        dtype: DT_INT32
        tensor_shape {
        }
        int_val: 32
      }
    }
  }
}
node {
  name: "train_input_fn/bucket_queue/bucket/read_bucket_3"
  op: "QueueDequeueManyV2"
  input: "train_input_fn/bucket_queue/bucket/bucket_queue_3"
  input: "train_input_fn/bucket_queue/bucket/read_bucket_3/n"
  attr {
    key: "_output_shapes"
    value {
      list {
        shape {
          dim {
            size: 32
          }
        }
        shape {
          dim {
            size: 32
          }
        }
        shape {
          dim {
            size: 32
          }
          dim {
            size: -1
          }
        }
        shape {
          dim {
            size: 32
          }
        }
        shape {
          dim {
            size: 32
          }
          dim {
            size: -1
          }
        }
      }
    }
  }
  attr {
    key: "component_types"
    value {
      list {
        type: DT_INT32
        type: DT_INT32
        type: DT_STRING
        type: DT_INT32
        type: DT_STRING
      }
    }
  }
  attr {
    key: "timeout_ms"
    value {
      i: -1
    }
  }
}
node {
  name: "train_input_fn/bucket_queue/bucket/enqueue_from_bucket_3"
  op: "QueueEnqueueV2"
  input: "train_input_fn/bucket_queue/bucket/top_queue"
  input: "train_input_fn/bucket_queue/bucket/Const_4"
  input: "train_input_fn/bucket_queue/bucket/read_bucket_3"
  input: "train_input_fn/bucket_queue/bucket/read_bucket_3:1"
  input: "train_input_fn/bucket_queue/bucket/read_bucket_3:2"
  input: "train_input_fn/bucket_queue/bucket/read_bucket_3:3"
  input: "train_input_fn/bucket_queue/bucket/read_bucket_3:4"
  attr {
    key: "Tcomponents"
    value {
      list {
        type: DT_INT32
        type: DT_INT32
        type: DT_INT32
        type: DT_STRING
        type: DT_INT32
        type: DT_STRING
      }
    }
  }
  attr {
    key: "timeout_ms"
    value {
      i: -1
    }
  }
}
node {
  name: "train_input_fn/bucket_queue/bucket/Const_5"
  op: "Const"
  attr {
    key: "_output_shapes"
    value {
      list {
        shape {
        }
      }
    }
  }
  attr {
    key: "dtype"
    value {
      type: DT_INT32
    }
  }
  attr {
    key: "value"
    value {
      tensor {
        dtype: DT_INT32
        tensor_shape {
        }
        int_val: 4
      }
    }
  }
}
node {
  name: "train_input_fn/bucket_queue/bucket/read_bucket_4/n"
  op: "Const"
  attr {
    key: "_output_shapes"
    value {
      list {
        shape {
        }
      }
    }
  }
  attr {
    key: "dtype"
    value {
      type: DT_INT32
    }
  }
  attr {
    key: "value"
    value {
      tensor {
        dtype: DT_INT32
        tensor_shape {
        }
        int_val: 32
      }
    }
  }
}
node {
  name: "train_input_fn/bucket_queue/bucket/read_bucket_4"
  op: "QueueDequeueManyV2"
  input: "train_input_fn/bucket_queue/bucket/bucket_queue_4"
  input: "train_input_fn/bucket_queue/bucket/read_bucket_4/n"
  attr {
    key: "_output_shapes"
    value {
      list {
        shape {
          dim {
            size: 32
          }
        }
        shape {
          dim {
            size: 32
          }
        }
        shape {
          dim {
            size: 32
          }
          dim {
            size: -1
          }
        }
        shape {
          dim {
            size: 32
          }
        }
        shape {
          dim {
            size: 32
          }
          dim {
            size: -1
          }
        }
      }
    }
  }
  attr {
    key: "component_types"
    value {
      list {
        type: DT_INT32
        type: DT_INT32
        type: DT_STRING
        type: DT_INT32
        type: DT_STRING
      }
    }
  }
  attr {
    key: "timeout_ms"
    value {
      i: -1
    }
  }
}
node {
  name: "train_input_fn/bucket_queue/bucket/enqueue_from_bucket_4"
  op: "QueueEnqueueV2"
  input: "train_input_fn/bucket_queue/bucket/top_queue"
  input: "train_input_fn/bucket_queue/bucket/Const_5"
  input: "train_input_fn/bucket_queue/bucket/read_bucket_4"
  input: "train_input_fn/bucket_queue/bucket/read_bucket_4:1"
  input: "train_input_fn/bucket_queue/bucket/read_bucket_4:2"
  input: "train_input_fn/bucket_queue/bucket/read_bucket_4:3"
  input: "train_input_fn/bucket_queue/bucket/read_bucket_4:4"
  attr {
    key: "Tcomponents"
    value {
      list {
        type: DT_INT32
        type: DT_INT32
        type: DT_INT32
        type: DT_STRING
        type: DT_INT32
        type: DT_STRING
      }
    }
  }
  attr {
    key: "timeout_ms"
    value {
      i: -1
    }
  }
}
node {
  name: "train_input_fn/bucket_queue/bucket/bucket_queue_0_Close"
  op: "QueueCloseV2"
  input: "train_input_fn/bucket_queue/bucket/bucket_queue_0"
  attr {
    key: "cancel_pending_enqueues"
    value {
      b: false
    }
  }
}
node {
  name: "train_input_fn/bucket_queue/bucket/bucket_queue_0_Close_1"
  op: "QueueCloseV2"
  input: "train_input_fn/bucket_queue/bucket/bucket_queue_0"
  attr {
    key: "cancel_pending_enqueues"
    value {
      b: true
    }
  }
}
node {
  name: "train_input_fn/bucket_queue/bucket/bucket_queue_1_Close"
  op: "QueueCloseV2"
  input: "train_input_fn/bucket_queue/bucket/bucket_queue_1"
  attr {
    key: "cancel_pending_enqueues"
    value {
      b: false
    }
  }
}
node {
  name: "train_input_fn/bucket_queue/bucket/bucket_queue_1_Close_1"
  op: "QueueCloseV2"
  input: "train_input_fn/bucket_queue/bucket/bucket_queue_1"
  attr {
    key: "cancel_pending_enqueues"
    value {
      b: true
    }
  }
}
node {
  name: "train_input_fn/bucket_queue/bucket/bucket_queue_2_Close"
  op: "QueueCloseV2"
  input: "train_input_fn/bucket_queue/bucket/bucket_queue_2"
  attr {
    key: "cancel_pending_enqueues"
    value {
      b: false
    }
  }
}
node {
  name: "train_input_fn/bucket_queue/bucket/bucket_queue_2_Close_1"
  op: "QueueCloseV2"
  input: "train_input_fn/bucket_queue/bucket/bucket_queue_2"
  attr {
    key: "cancel_pending_enqueues"
    value {
      b: true
    }
  }
}
node {
  name: "train_input_fn/bucket_queue/bucket/bucket_queue_3_Close"
  op: "QueueCloseV2"
  input: "train_input_fn/bucket_queue/bucket/bucket_queue_3"
  attr {
    key: "cancel_pending_enqueues"
    value {
      b: false
    }
  }
}
node {
  name: "train_input_fn/bucket_queue/bucket/bucket_queue_3_Close_1"
  op: "QueueCloseV2"
  input: "train_input_fn/bucket_queue/bucket/bucket_queue_3"
  attr {
    key: "cancel_pending_enqueues"
    value {
      b: true
    }
  }
}
node {
  name: "train_input_fn/bucket_queue/bucket/bucket_queue_4_Close"
  op: "QueueCloseV2"
  input: "train_input_fn/bucket_queue/bucket/bucket_queue_4"
  attr {
    key: "cancel_pending_enqueues"
    value {
      b: false
    }
  }
}
node {
  name: "train_input_fn/bucket_queue/bucket/bucket_queue_4_Close_1"
  op: "QueueCloseV2"
  input: "train_input_fn/bucket_queue/bucket/bucket_queue_4"
  attr {
    key: "cancel_pending_enqueues"
    value {
      b: true
    }
  }
}
node {
  name: "train_input_fn/bucket_queue/bucket/top_queue_Close"
  op: "QueueCloseV2"
  input: "train_input_fn/bucket_queue/bucket/top_queue"
  attr {
    key: "cancel_pending_enqueues"
    value {
      b: false
    }
  }
}
node {
  name: "train_input_fn/bucket_queue/bucket/top_queue_Close_1"
  op: "QueueCloseV2"
  input: "train_input_fn/bucket_queue/bucket/top_queue"
  attr {
    key: "cancel_pending_enqueues"
    value {
      b: true
    }
  }
}
node {
  name: "train_input_fn/bucket_queue/bucket/top_queue_Size"
  op: "QueueSizeV2"
  input: "train_input_fn/bucket_queue/bucket/top_queue"
  attr {
    key: "_output_shapes"
    value {
      list {
        shape {
        }
      }
    }
  }
}
node {
  name: "train_input_fn/bucket_queue/bucket/Cast"
  op: "Cast"
  input: "train_input_fn/bucket_queue/bucket/top_queue_Size"
  attr {
    key: "DstT"
    value {
      type: DT_FLOAT
    }
  }
  attr {
    key: "SrcT"
    value {
      type: DT_INT32
    }
  }
  attr {
    key: "_output_shapes"
    value {
      list {
        shape {
        }
      }
    }
  }
}
node {
  name: "train_input_fn/bucket_queue/bucket/bucket/train_input_fn/bucket_queue/bucket/bucket_queue_0/size/tags"
  op: "Const"
  attr {
    key: "_output_shapes"
    value {
      list {
        shape {
        }
      }
    }
  }
  attr {
    key: "dtype"
    value {
      type: DT_STRING
    }
  }
  attr {
    key: "value"
    value {
      tensor {
        dtype: DT_STRING
        tensor_shape {
        }
        string_val: "train_input_fn/bucket_queue/bucket/bucket/train_input_fn/bucket_queue/bucket/bucket_queue_0/size"
      }
    }
  }
}
node {
  name: "train_input_fn/bucket_queue/bucket/bucket/train_input_fn/bucket_queue/bucket/bucket_queue_0/size"
  op: "ScalarSummary"
  input: "train_input_fn/bucket_queue/bucket/bucket/train_input_fn/bucket_queue/bucket/bucket_queue_0/size/tags"
  input: "train_input_fn/bucket_queue/bucket/Cast"
  attr {
    key: "T"
    value {
      type: DT_FLOAT
    }
  }
  attr {
    key: "_output_shapes"
    value {
      list {
        shape {
        }
      }
    }
  }
}
node {
  name: "train_input_fn/bucket_queue/bucket/top_queue_Size_1"
  op: "QueueSizeV2"
  input: "train_input_fn/bucket_queue/bucket/top_queue"
  attr {
    key: "_output_shapes"
    value {
      list {
        shape {
        }
      }
    }
  }
}
node {
  name: "train_input_fn/bucket_queue/bucket/Cast_1"
  op: "Cast"
  input: "train_input_fn/bucket_queue/bucket/top_queue_Size_1"
  attr {
    key: "DstT"
    value {
      type: DT_FLOAT
    }
  }
  attr {
    key: "SrcT"
    value {
      type: DT_INT32
    }
  }
  attr {
    key: "_output_shapes"
    value {
      list {
        shape {
        }
      }
    }
  }
}
node {
  name: "train_input_fn/bucket_queue/bucket/bucket/train_input_fn/bucket_queue/bucket/bucket_queue_1/size/tags"
  op: "Const"
  attr {
    key: "_output_shapes"
    value {
      list {
        shape {
        }
      }
    }
  }
  attr {
    key: "dtype"
    value {
      type: DT_STRING
    }
  }
  attr {
    key: "value"
    value {
      tensor {
        dtype: DT_STRING
        tensor_shape {
        }
        string_val: "train_input_fn/bucket_queue/bucket/bucket/train_input_fn/bucket_queue/bucket/bucket_queue_1/size"
      }
    }
  }
}
node {
  name: "train_input_fn/bucket_queue/bucket/bucket/train_input_fn/bucket_queue/bucket/bucket_queue_1/size"
  op: "ScalarSummary"
  input: "train_input_fn/bucket_queue/bucket/bucket/train_input_fn/bucket_queue/bucket/bucket_queue_1/size/tags"
  input: "train_input_fn/bucket_queue/bucket/Cast_1"
  attr {
    key: "T"
    value {
      type: DT_FLOAT
    }
  }
  attr {
    key: "_output_shapes"
    value {
      list {
        shape {
        }
      }
    }
  }
}
node {
  name: "train_input_fn/bucket_queue/bucket/top_queue_Size_2"
  op: "QueueSizeV2"
  input: "train_input_fn/bucket_queue/bucket/top_queue"
  attr {
    key: "_output_shapes"
    value {
      list {
        shape {
        }
      }
    }
  }
}
node {
  name: "train_input_fn/bucket_queue/bucket/Cast_2"
  op: "Cast"
  input: "train_input_fn/bucket_queue/bucket/top_queue_Size_2"
  attr {
    key: "DstT"
    value {
      type: DT_FLOAT
    }
  }
  attr {
    key: "SrcT"
    value {
      type: DT_INT32
    }
  }
  attr {
    key: "_output_shapes"
    value {
      list {
        shape {
        }
      }
    }
  }
}
node {
  name: "train_input_fn/bucket_queue/bucket/bucket/train_input_fn/bucket_queue/bucket/bucket_queue_2/size/tags"
  op: "Const"
  attr {
    key: "_output_shapes"
    value {
      list {
        shape {
        }
      }
    }
  }
  attr {
    key: "dtype"
    value {
      type: DT_STRING
    }
  }
  attr {
    key: "value"
    value {
      tensor {
        dtype: DT_STRING
        tensor_shape {
        }
        string_val: "train_input_fn/bucket_queue/bucket/bucket/train_input_fn/bucket_queue/bucket/bucket_queue_2/size"
      }
    }
  }
}
node {
  name: "train_input_fn/bucket_queue/bucket/bucket/train_input_fn/bucket_queue/bucket/bucket_queue_2/size"
  op: "ScalarSummary"
  input: "train_input_fn/bucket_queue/bucket/bucket/train_input_fn/bucket_queue/bucket/bucket_queue_2/size/tags"
  input: "train_input_fn/bucket_queue/bucket/Cast_2"
  attr {
    key: "T"
    value {
      type: DT_FLOAT
    }
  }
  attr {
    key: "_output_shapes"
    value {
      list {
        shape {
        }
      }
    }
  }
}
node {
  name: "train_input_fn/bucket_queue/bucket/top_queue_Size_3"
  op: "QueueSizeV2"
  input: "train_input_fn/bucket_queue/bucket/top_queue"
  attr {
    key: "_output_shapes"
    value {
      list {
        shape {
        }
      }
    }
  }
}
node {
  name: "train_input_fn/bucket_queue/bucket/Cast_3"
  op: "Cast"
  input: "train_input_fn/bucket_queue/bucket/top_queue_Size_3"
  attr {
    key: "DstT"
    value {
      type: DT_FLOAT
    }
  }
  attr {
    key: "SrcT"
    value {
      type: DT_INT32
    }
  }
  attr {
    key: "_output_shapes"
    value {
      list {
        shape {
        }
      }
    }
  }
}
node {
  name: "train_input_fn/bucket_queue/bucket/bucket/train_input_fn/bucket_queue/bucket/bucket_queue_3/size/tags"
  op: "Const"
  attr {
    key: "_output_shapes"
    value {
      list {
        shape {
        }
      }
    }
  }
  attr {
    key: "dtype"
    value {
      type: DT_STRING
    }
  }
  attr {
    key: "value"
    value {
      tensor {
        dtype: DT_STRING
        tensor_shape {
        }
        string_val: "train_input_fn/bucket_queue/bucket/bucket/train_input_fn/bucket_queue/bucket/bucket_queue_3/size"
      }
    }
  }
}
node {
  name: "train_input_fn/bucket_queue/bucket/bucket/train_input_fn/bucket_queue/bucket/bucket_queue_3/size"
  op: "ScalarSummary"
  input: "train_input_fn/bucket_queue/bucket/bucket/train_input_fn/bucket_queue/bucket/bucket_queue_3/size/tags"
  input: "train_input_fn/bucket_queue/bucket/Cast_3"
  attr {
    key: "T"
    value {
      type: DT_FLOAT
    }
  }
  attr {
    key: "_output_shapes"
    value {
      list {
        shape {
        }
      }
    }
  }
}
node {
  name: "train_input_fn/bucket_queue/bucket/top_queue_Size_4"
  op: "QueueSizeV2"
  input: "train_input_fn/bucket_queue/bucket/top_queue"
  attr {
    key: "_output_shapes"
    value {
      list {
        shape {
        }
      }
    }
  }
}
node {
  name: "train_input_fn/bucket_queue/bucket/Cast_4"
  op: "Cast"
  input: "train_input_fn/bucket_queue/bucket/top_queue_Size_4"
  attr {
    key: "DstT"
    value {
      type: DT_FLOAT
    }
  }
  attr {
    key: "SrcT"
    value {
      type: DT_INT32
    }
  }
  attr {
    key: "_output_shapes"
    value {
      list {
        shape {
        }
      }
    }
  }
}
node {
  name: "train_input_fn/bucket_queue/bucket/bucket/train_input_fn/bucket_queue/bucket/bucket_queue_4/size/tags"
  op: "Const"
  attr {
    key: "_output_shapes"
    value {
      list {
        shape {
        }
      }
    }
  }
  attr {
    key: "dtype"
    value {
      type: DT_STRING
    }
  }
  attr {
    key: "value"
    value {
      tensor {
        dtype: DT_STRING
        tensor_shape {
        }
        string_val: "train_input_fn/bucket_queue/bucket/bucket/train_input_fn/bucket_queue/bucket/bucket_queue_4/size"
      }
    }
  }
}
node {
  name: "train_input_fn/bucket_queue/bucket/bucket/train_input_fn/bucket_queue/bucket/bucket_queue_4/size"
  op: "ScalarSummary"
  input: "train_input_fn/bucket_queue/bucket/bucket/train_input_fn/bucket_queue/bucket/bucket_queue_4/size/tags"
  input: "train_input_fn/bucket_queue/bucket/Cast_4"
  attr {
    key: "T"
    value {
      type: DT_FLOAT
    }
  }
  attr {
    key: "_output_shapes"
    value {
      list {
        shape {
        }
      }
    }
  }
}
node {
  name: "train_input_fn/bucket_queue/bucket/top_queue_Size_5"
  op: "QueueSizeV2"
  input: "train_input_fn/bucket_queue/bucket/top_queue"
  attr {
    key: "_output_shapes"
    value {
      list {
        shape {
        }
      }
    }
  }
}
node {
  name: "train_input_fn/bucket_queue/bucket/Cast_5"
  op: "Cast"
  input: "train_input_fn/bucket_queue/bucket/top_queue_Size_5"
  attr {
    key: "DstT"
    value {
      type: DT_FLOAT
    }
  }
  attr {
    key: "SrcT"
    value {
      type: DT_INT32
    }
  }
  attr {
    key: "_output_shapes"
    value {
      list {
        shape {
        }
      }
    }
  }
}
node {
  name: "train_input_fn/bucket_queue/bucket/mul/y"
  op: "Const"
  attr {
    key: "_output_shapes"
    value {
      list {
        shape {
        }
      }
    }
  }
  attr {
    key: "dtype"
    value {
      type: DT_FLOAT
    }
  }
  attr {
    key: "value"
    value {
      tensor {
        dtype: DT_FLOAT
        tensor_shape {
        }
        float_val: 0.0001814223505789414
      }
    }
  }
}
node {
  name: "train_input_fn/bucket_queue/bucket/mul"
  op: "Mul"
  input: "train_input_fn/bucket_queue/bucket/Cast_5"
  input: "train_input_fn/bucket_queue/bucket/mul/y"
  attr {
    key: "T"
    value {
      type: DT_FLOAT
    }
  }
  attr {
    key: "_output_shapes"
    value {
      list {
        shape {
        }
      }
    }
  }
}
node {
  name: "train_input_fn/bucket_queue/bucket/bucket/train_input_fn/bucket_queue/bucket/top_queue/fraction_of_5512_full/tags"
  op: "Const"
  attr {
    key: "_output_shapes"
    value {
      list {
        shape {
        }
      }
    }
  }
  attr {
    key: "dtype"
    value {
      type: DT_STRING
    }
  }
  attr {
    key: "value"
    value {
      tensor {
        dtype: DT_STRING
        tensor_shape {
        }
        string_val: "…"
      }
    }
  }
}
node {
  name: "train_input_fn/bucket_queue/bucket/bucket/train_input_fn/bucket_queue/bucket/top_queue/fraction_of_5512_full"
  op: "ScalarSummary"
  input: "train_input_fn/bucket_queue/bucket/bucket/train_input_fn/bucket_queue/bucket/top_queue/fraction_of_5512_full/tags"
  input: "train_input_fn/bucket_queue/bucket/mul"
  attr {
    key: "T"
    value {
      type: DT_FLOAT
    }
  }
  attr {
    key: "_output_shapes"
    value {
      list {
        shape {
        }
      }
    }
  }
}
node {
  name: "train_input_fn/bucket_queue/bucket/dequeue_top"
  op: "QueueDequeueV2"
  input: "train_input_fn/bucket_queue/bucket/top_queue"
  attr {
    key: "_output_shapes"
    value {
      list {
        shape {
        }
        shape {
          dim {
            size: 32
          }
        }
        shape {
          dim {
            size: 32
          }
        }
        shape {
          dim {
            size: 32
          }
          dim {
            size: -1
          }
        }
        shape {
          dim {
            size: 32
          }
        }
        shape {
          dim {
            size: 32
          }
          dim {
            size: -1
          }
        }
      }
    }
  }
  attr {
    key: "component_types"
    value {
      list {
        type: DT_INT32
        type: DT_INT32
        type: DT_INT32
        type: DT_STRING
        type: DT_INT32
        type: DT_STRING
      }
    }
  }
  attr {
    key: "timeout_ms"
    value {
      i: -1
    }
  }
}
node {
  name: "model/att_seq2seq/Const"
  op: "Const"
  attr {
    key: "_output_shapes"
    value {
      list {
        shape {
          dim {
            size: 3143
          }
        }
      }
    }
  }
  attr {
    key: "dtype"
    value {
      type: DT_STRING
    }
  }
  attr {
    key: "value"
    value {
      tensor {
        dtype: DT_STRING
        tensor_shape {
          dim {
            size: 3143
          }
        }
        string_val: " "
        string_val: "i"
        string_val: "a"
        string_val: "n"
        string_val: "e"
        string_val: "u"
        string_val: "o"
        string_val: "h"
        string_val: "="
        string_val: "g"
        string_val: "\357\274\214"
        string_val: ">"
        string_val: "d"
        string_val: "s"
        string_val: "z"
        string_val: "l"
        string_val: "y"
        string_val: "\343\200\202"
        string_val: "w"
        string_val: "m"
        string_val: "b"
        string_val: "x"
        string_val: "j"
        string_val: "_"
        string_val: "\346\210\221"
        string_val: "\344\275\240"
        string_val: "q"
        string_val: "\344\272\206"
        string_val: "\357\274\237"
        string_val: "t"
        string_val: "c"
        string_val: "k"
        string_val: "\347\232\204"
        string_val: "\344\270\215"
        string_val: "\357\274\201"
        string_val: "f"
        string_val: "\345\245\275"
        string_val: "\342\200\246"
        string_val: "\345\234\250"
        string_val: "r"
        string_val: "."
        string_val: "\345\216\273"
        string_val: "\346\230\257"
        string_val: "\345\225\212"
        string_val: "\346\262\241"
        string_val: "\344\270\200"
        string_val: "\344\271\210"
        string_val: "\345\244\251"
        string_val: "\346\234\211"
        string_val: "\346\235\245"
        string_val: "\345\220\247"
        string_val: "\344\270\212"
        string_val: "\345\210\260"
        string_val: "p"
        string_val: "\345\260\261"
        string_val: "\350\246\201"
        string_val: "\345\233\236"
        string_val: "\344\270\213"
        string_val: "\344\270\252"
        string_val: ","
        string_val: "~"
        string_val: "<"
        string_val: "\350\277\230"
        string_val: "\351\202\243"
        string_val: "\347\202\271"
        string_val: "#"
        string_val: "\345\220\227"
        string_val: "\344\273\254"
        string_val: "\347\234\213"
        string_val: "\350\277\231"
        string_val: "\346\227\266"
        string_val: "\345\220\203"
        string_val: "\344\274\232"
        string_val: "\345\223\210"
        string_val: "\345\256\266"
        string_val: "\347\273\231"
        string_val: "\350\257\264"
        string_val: "\344\273\200"
        string_val: "\350\277\207"
        string_val: "\346\203\263"
        string_val: "\345\221\265"
        string_val: "\345\221\242"
        string_val: "\344\273\212"
        string_val: "\346\231\232"
        string_val: "\346\230\216"
        string_val: "\351\203\275"
        string_val: "\344\271\237"
        string_val: "\344\272\213"
        string_val: "\344\272\272"
        string_val: "?"
        string_val: "\347\224\265"
        string_val: "\350\260\242"
        string_val: "\345\244\232"
        string_val: "\350\257\235"
        string_val: "\345\217\257"
        string_val: "\345\276\227"
        string_val: "\351\245\255"
        string_val: "\346\211\223"
        string_val: "\344\273\245"
        string_val: "\345\255\246"
        string_val: "\345\277\253"
        string_val: "*"
        string_val: "\350\200\201"
        string_val: "\346\200\216"
        string_val: "\350\203\275"
        string_val: "\347\216\260"
        string_val: "\347\255\211"
        string_val: "\350\265\267"
        string_val: "\347\237\245"
        string_val: "\344\273\226"
        string_val: "\351\207\214"
        string_val: "\345\217\221"
        string_val: "\345\225\246"
        string_val: "\351\201\223"
        string_val: "\345\223\252"
        string_val: "\345\244\247"
        string_val: "\357\275\236"
        string_val: "\347\235\241"
        string_val: "\345\260\217"
        string_val: "\345\277\203"
        string_val: "\351\227\256"
        string_val: "\345\207\272"
        string_val: "\345\200\231"
        string_val: "\345\274\200"
        string_val: "\350\275\246"
        string_val: "\345\223\246"
        string_val: "\346\240\267"
        string_val: "\345\255\220"
        string_val: "\350\241\214"
        string_val: "\345\206\215"
        string_val: "\345\276\210"
        string_val: "\344\271\260"
        string_val: "\346\211\276"
        string_val: "-"
        string_val: "\345\215\210"
        string_val: "\345\220\216"
        string_val: "\347\235\200"
        string_val: "\345\271\262"
        string_val: "\347\217\255"
        string_val: "\347\224\237"
        string_val: "\350\257\276"
        string_val: "\347\224\250"
        string_val: "\346\204\217"
        string_val: "\346\227\251"
        string_val: "\346\234\272"
        string_val: "\345\210\253"
        string_val: "\345\230\233"
        string_val: ":"
        string_val: "\345\210\232"
        string_val: "\347\216\251"
        string_val: "\345\222\214"
        string_val: "\347\234\237"
        string_val: "\345\221\200"
        string_val: "\350\207\252"
        string_val: "\345\230\277"
        string_val: "\344\277\241"
        string_val: "\350\257\267"
        string_val: "\345\207\240"
        string_val: "\351\227\264"
        string_val: "\346\234\200"
        string_val: "\345\217\267"
        string_val: "\345\201\232"
        string_val: "\346\201\251"
        string_val: "\350\247\211"
        string_val: "\345\270\256"
        string_val: "\346\212\212"
        string_val: "\345\227\257"
        string_val: "\350\247\201"
        string_val: "\345\244\252"
        string_val: "\344\270\255"
        string_val: "\347\210\261"
        string_val: "!"
        string_val: "\345\256\232"
        string_val: "v"
        string_val: "\343\200\201"
        string_val: "\345\256\214"
        string_val: "\345\217\210"
        string_val: "\346\211\215"
        string_val: "\345\270\246"
        string_val: "\345\271\264"
        string_val: "\345\246\210"
        string_val: "\344\270\272"
        string_val: ")"
        string_val: "\351\235\242"
        string_val: "\344\270\234"
        string_val: "\345\277\231"
        string_val: "\346\211\213"
        string_val: "\357\274\232"
        string_val: "\344\275\234"
        string_val: "\350\256\260"
        string_val: "\345\256\211"
        string_val: "\350\267\237"
        string_val: "\344\271\220"
        string_val: "\345\267\261"
        string_val: "\345\234\260"
        string_val: "\351\222\261"
        string_val: "\345\205\210"
        string_val: "\346\224\266"
        string_val: "\350\200\203"
        string_val: "\346\216\245"
        string_val: "\302\267"
        string_val: "\347\263\273"
        string_val: "\350\277\221"
        string_val: "\350\245\277"
        string_val: "\345\245\271"
        string_val: "\345\267\245"
        string_val: "\350\265\260"
        string_val: "\345\257\271"
        string_val: "\346\240\241"
        string_val: "\346\227\245"
        string_val: "\345\205\254"
        string_val: "\346\201\257"
        string_val: "\345\212\240"
        string_val: "\345\220\214"
        string_val: "\345\267\262"
        string_val: "\347\251\272"
        string_val: "Q"
        string_val: "\345\223\245"
        string_val: "\345\221\250"
        string_val: "\345\211\215"
        string_val: "\347\204\266"
        string_val: "\347\237\255"
        string_val: "\346\224\276"
        string_val: "\345\270\210"
        string_val: "\345\204\277"
        string_val: "\344\270\244"
        string_val: "\346\203\205"
        string_val: "\346\254\241"
        string_val: "\347\273\217"
        string_val: "\345\225\245"
        string_val: "\345\217\252"
        string_val: "\346\260\224"
        string_val: "^"
        string_val: "\345\212\236"
        string_val: "\345\215\201"
        string_val: "\347\275\221"
        string_val: "\346\255\273"
        string_val: "\345\247\220"
        string_val: "\350\276\271"
        string_val: "\346\226\271"
        string_val: "\350\201\224"
        string_val: "\347\256\227"
        string_val: "\350\257\245"
        string_val: "\345\246\202"
        string_val: "\346\226\260"
        string_val: "\350\267\257"
        string_val: "M"
        string_val: "\345\260\221"
        string_val: "\345\220\254"
        string_val: "\350\256\251"
        string_val: "\344\272\262"
        string_val: "\345\256\236"
        string_val: "\350\201\212"
        string_val: "\346\213\277"
        string_val: "\346\204\237"
        string_val: "\351\224\231"
        string_val: "\351\227\250"
        string_val: "\346\255\243"
        string_val: "\344\271\246"
        string_val: "\346\227\240"
        string_val: "\346\236\234"
        string_val: "\345\272\224"
        string_val: "E"
        string_val: "\345\217\253"
        string_val: "I"
        string_val: "\345\201\207"
        string_val: "D"
        string_val: "\345\244\264"
        string_val: "\344\271\240"
        string_val: "\346\202\250"
        string_val: "\351\242\230"
        string_val: "\347\245\235"
        string_val: "\345\210\206"
        string_val: "\345\256\244"
        string_val: "\344\270\232"
        string_val: "T"
        string_val: "\345\245\263"
        string_val: "\350\272\253"
        string_val: "\351\200\232"
        string_val: "\346\234\215"
        string_val: "\344\270\211"
        string_val: "\344\274\221"
        string_val: "\350\257\225"
        string_val: "A"
        string_val: "\346\267\256"
        string_val: "P"
        string_val: "\347\220\206"
        string_val: "\351\225\277"
        string_val: "\346\200\235"
        string_val: "\344\275\223"
        string_val: "\347\245\250"
        string_val: "\345\205\263"
        string_val: "\345\244\226"
        string_val: "\346\212\245"
        string_val: "\344\272\244"
        string_val: "\346\234\210"
        string_val: "\346\234\254"
        string_val: "\345\217\213"
        string_val: "\346\210\220"
        string_val: "\346\211\200"
        string_val: "\346\257\224"
        string_val: "\346\263\250"
        string_val: "\351\251\254"
        string_val: "\344\276\277"
        string_val: "\347\210\270"
        string_val: "\346\230\250"
        string_val: "\346\234\237"
        string_val: "\345\221\212"
        string_val: "\345\215\212"
        string_val: "\350\256\241"
        string_val: "\344\272\214"
        string_val: "\347\233\264"
        string_val: "\351\200\201"
        string_val: "\344\271\205"
        string_val: "\346\260\264"
        string_val: "\350\212\202"
        string_val: "\345\272\212"
        string_val: "\345\244\207"
        string_val: "\347\264\257"
        string_val: "\347\203\246"
        string_val: "\346\210\277"
        string_val: "\344\272\224"
        string_val: "\344\272\233"
        string_val: "\345\212\250"
        string_val: "C"
        string_val: "\344\275\217"
        string_val: "\345\222\261"
        string_val: "\345\256\235"
        string_val: "\346\237\245"
        string_val: "\346\245\274"
        string_val: "L"
        string_val: "\350\241\243"
        string_val: "\346\234\213"
        string_val: "\346\264\227"
        string_val: "\346\264\273"
        string_val: "\345\203\217"
        string_val: "\344\273\266"
        string_val: "\345\235\220"
        string_val: "2"
        string_val: "3"
        string_val: "\347\253\231"
        string_val: "\350\242\253"
        string_val: "\345\274\204"
        string_val: "\345\217\243"
        string_val: "\345\277\230"
        string_val: "\345\226\234"
        string_val: ";"
        string_val: "\345\220\215"
        string_val: "\346\214\272"
        string_val: "\345\215\225"
        string_val: "\351\232\276"
        string_val: "\351\241\272"
        string_val: "\346\254\242"
        string_val: "\351\253\230"
        string_val: "X"
        string_val: "\347\246\217"
        string_val: "\345\230\273"
        string_val: "\350\210\215"
        string_val: "\345\274\240"
        string_val: "\345\256\277"
        string_val: "\347\273\223"
        string_val: "\345\205\255"
        string_val: "\345\233\233"
        string_val: "\350\204\221"
        string_val: "\345\251\206"
        string_val: "("
        string_val: "\357\274\211"
        string_val: "\346\270\205"
        string_val: "\357\274\210"
        string_val: "\345\206\231"
        string_val: "\345\275\223"
        string_val: "\344\271\213"
        string_val: "\345\205\266"
        string_val: "\350\264\271"
        string_val: "\351\233\250"
        string_val: "\345\235\227"
        string_val: "\345\256\242"
        string_val: "\357\274\233"
        string_val: "\345\222\213"
        string_val: "\344\275\206"
        string_val: "\347\201\253"
        string_val: "\350\277\233"
        string_val: "\347\205\247"
        string_val: "\344\275\215"
        string_val: "\344\273\216"
        string_val: "\350\257\211"
        string_val: "\345\244\215"
        string_val: "\347\220\203"
        string_val: "\345\212\233"
        string_val: "\346\231\225"
        string_val: "\346\217\220"
        string_val: "\345\226\235"
        string_val: "\350\260\201"
        string_val: "\345\206\267"
        string_val: "\346\205\242"
        string_val: "\351\231\252"
        string_val: "\351\202\256"
        string_val: "\345\233\240"
        string_val: "\345\270\270"
        string_val: "\345\255\251"
        string_val: "O"
        string_val: "\347\233\270"
        string_val: "\346\215\242"
        string_val: "\345\205\250"
        string_val: "\345\267\256"
        string_val: "\347\240\201"
        string_val: "1"
        string_val: "\346\257\217"
        string_val: "\345\275\261"
        string_val: "\346\230\237"
        string_val: "\346\220\236"
        string_val: "\345\217\215"
        string_val: "\345\215\227"
        string_val: "\346\263\225"
        string_val: "\345\234\272"
        string_val: "\351\207\215"
        string_val: "K"
        string_val: "\345\221\234"
        string_val: "\345\214\205"
        string_val: "\344\272\216"
        string_val: "\350\212\261"
        string_val: "\347\276\216"
        string_val: "\345\274\237"
        string_val: "\346\234\253"
        string_val: "\351\200\233"
        string_val: "5"
        string_val: "\346\234\233"
        string_val: "\345\276\205"
        string_val: "\346\225\231"
        string_val: "\350\201\232"
        string_val: "\350\257\201"
        string_val: "\346\200\245"
        string_val: "\345\247\213"
        string_val: "\350\265\266"
        string_val: "\345\246\271"
        string_val: "\350\241\250"
        string_val: "\350\265\204"
        string_val: "\345\214\227"
        string_val: "\346\226\207"
        string_val: "\347\264\247"
        string_val: "\346\200\225"
        string_val: "\345\215\241"
        string_val: "\350\277\234"
        string_val: "\345\205\253"
        string_val: "\347\231\275"
        string_val: "\347\254\254"
        string_val: "\350\256\244"
        string_val: "\345\233\275"
        string_val: "\346\224\271"
        string_val: "B"
        string_val: "S"
        string_val: "\345\233\276"
        string_val: "\344\273\275"
        string_val: "\345\223\216"
        string_val: "H"
        string_val: "\346\265\267"
        string_val: "\350\200\214"
        string_val: "\351\205\222"
        string_val: "\347\256\241"
        string_val: "\344\274\260"
        string_val: "\347\251\277"
        string_val: "\344\277\235"
        string_val: "\347\203\255"
        string_val: "\351\272\273"
        string_val: "\351\206\222"
        string_val: "\345\216\237"
        string_val: "\345\217\227"
        string_val: "\344\270\273"
        string_val: "\351\243\216"
        string_val: "7"
        string_val: "\346\262\271"
        string_val: "\345\224\211"
        string_val: "\345\267\236"
        string_val: "\351\222\237"
        string_val: "\351\243\236"
        string_val: "\345\270\202"
        string_val: "\346\270\270"
        string_val: "\350\257\255"
        string_val: "\346\213\211"
        string_val: "\351\231\242"
        string_val: "\347\225\231"
        string_val: "4"
        string_val: "\351\232\217"
        string_val: "\351\235\240"
        string_val: "\350\247\243"
        string_val: "\345\244\237"
        string_val: "\345\220\210"
        string_val: "\347\224\267"
        string_val: "\345\217\270"
        string_val: "\344\271\226"
        string_val: "\350\202\257"
        string_val: "\350\241\227"
        string_val: "\345\261\261"
        string_val: "\345\217\230"
        string_val: "\351\245\277"
        string_val: "\350\276\203"
        string_val: "\345\221\227"
        string_val: "\345\260\275"
        string_val: "\351\234\200"
        string_val: "\350\275\254"
        string_val: "\346\235\241"
        string_val: "\345\210\251"
        string_val: "\345\271\263"
        string_val: "\346\200\273"
        string_val: "\345\222\257"
        string_val: "\350\217\234"
        string_val: "\347\272\277"
        string_val: "\346\235\216"
        string_val: "\345\200\237"
        string_val: "\346\204\277"
        string_val: "\350\256\262"
        string_val: "\344\270\203"
        string_val: "\350\247\206"
        string_val: "/"
        string_val: "\345\272\227"
        string_val: "\351\207\217"
        string_val: "\345\201\234"
        string_val: "\345\221\230"
        string_val: "\345\267\246"
        string_val: "\346\233\264"
        string_val: "\345\270\214"
        string_val: "\345\243\260"
        string_val: "\351\246\206"
        string_val: "\344\272\254"
        string_val: "\346\235\277"
        string_val: "\350\260\203"
        string_val: "\345\235\217"
        string_val: "\347\256\261"
        string_val: "8"
        string_val: "\346\216\222"
        string_val: "\345\217\202"
        string_val: "\344\277\251"
        string_val: "\346\212\261"
        string_val: "\351\230\277"
        string_val: "\350\243\205"
        string_val: "\350\267\221"
        string_val: "\347\241\256"
        string_val: "\350\277\237"
        string_val: "\351\227\267"
        string_val: "\345\212\241"
        string_val: "\346\266\210"
        string_val: "\345\255\227"
        string_val: "6"
        string_val: "\345\244\234"
        string_val: "\346\242\246"
        string_val: "\351\230\263"
        string_val: "\345\215\203"
        string_val: "\345\271\270"
        string_val: "N"
        string_val: "\347\214\252"
        string_val: "\351\244\220"
        string_val: "\347\231\276"
        string_val: "\346\257\225"
        string_val: "\347\254\221"
        string_val: "\347\247\215"
        string_val: "\350\213\246"
        string_val: "\345\251\232"
        string_val: "\345\206\222"
        string_val: "\345\233\260"
        string_val: "\345\205\204"
        string_val: "\346\213\234"
        string_val: "\345\205\205"
        string_val: "\351\200\211"
        string_val: "\351\252\214"
        string_val: "\347\233\256"
        string_val: "\350\266\205"
        string_val: "\345\272\246"
        string_val: "\347\272\247"
        string_val: "\350\256\272"
        string_val: "\350\264\247"
        string_val: "\351\207\221"
        string_val: "\345\205\203"
        string_val: "\351\242\235"
        string_val: "\350\264\235"
        string_val: "\347\255\224"
        string_val: "\344\270\207"
        string_val: "\350\257\206"
        string_val: "\346\276\241"
        string_val: "\351\203\201"
        string_val: "\347\211\271"
        string_val: "\346\225\264"
        string_val: "\345\220\204"
        string_val: "\346\210\226"
        string_val: "\347\245\236"
        string_val: "\347\273\255"
        string_val: "\346\225\260"
        string_val: "\344\274\240"
        string_val: "\345\205\211"
        string_val: "\344\277\272"
        string_val: "\347\211\207"
        string_val: "\344\273\273"
        string_val: "\345\274\272"
        string_val: "\347\216\213"
        string_val: "\351\200\237"
        string_val: "\345\217\263"
        string_val: "\347\273\204"
        string_val: "\347\240\224"
        string_val: "\344\271\235"
        string_val: "\345\277\205"
        string_val: "\345\217\226"
        string_val: "G"
        string_val: "\345\244\261"
        string_val: "\350\200\205"
        string_val: "\345\210\207"
        string_val: "\347\211\251"
        string_val: "\344\275\225"
        string_val: "\346\273\264"
        string_val: "\346\246\202"
        string_val: "\350\256\250"
        string_val: "\345\215\226"
        string_val: "\350\233\213"
        string_val: "\350\277\220"
        string_val: "\347\276\212"
        string_val: "\351\242\206"
        string_val: "\345\277\227"
        string_val: "\345\206\205"
        string_val: "\347\246\273"
        string_val: "\344\273\267"
        string_val: "\346\226\231"
        string_val: "\344\277\256"
        string_val: "\347\227\205"
        string_val: "\350\213\261"
        string_val: "\347\226\274"
        string_val: "\345\257\274"
        string_val: "\345\271\277"
        string_val: "\350\264\265"
        string_val: "\347\272\242"
        string_val: "\347\234\274"
        string_val: "\351\235\236"
        string_val: "\347\244\274"
        string_val: "\345\220\221"
        string_val: "\346\245\232"
        string_val: "\345\214\272"
        string_val: "\345\272\225"
        string_val: "\345\206\265"
        string_val: "\346\211\260"
        string_val: "\345\202\273"
        string_val: "\346\213\205"
        string_val: "\346\262\231"
        string_val: "\345\205\264"
        string_val: "\346\213\233"
        string_val: "\346\260\270"
        string_val: "\351\203\250"
        string_val: "\346\207\202"
        string_val: "\350\211\262"
        string_val: "U"
        string_val: "\346\222\222"
        string_val: "\346\210\217"
        string_val: "\342\200\234"
        string_val: "@"
        string_val: "\344\270\223"
        string_val: "\345\257\235"
        string_val: "\351\243\237"
        string_val: "\345\200\222"
        string_val: "\344\272\256"
        string_val: "\345\273\272"
        string_val: "\350\210\254"
        string_val: "\347\272\246"
        string_val: "\346\257\233"
        string_val: "\350\276\233"
        string_val: "\346\261\202"
        string_val: "\347\255\276"
        string_val: "\344\273\243"
        string_val: "\347\261\263"
        string_val: "\345\206\263"
        string_val: "9"
        string_val: "\350\215\257"
        string_val: "\345\223\207"
        string_val: "\346\270\251"
        string_val: "\346\273\241"
        string_val: "\350\210\222"
        string_val: "\345\276\200"
        string_val: "\347\247\237"
        string_val: "\351\235\222"
        string_val: "Y"
        string_val: "\345\256\271"
        string_val: "\347\247\221"
        string_val: "\345\245\266"
        string_val: "\351\241\276"
        string_val: "\345\233\255"
        string_val: "\345\223\201"
        string_val: "\346\224\257"
        string_val: "\345\214\273"
        string_val: "\346\225\243"
        string_val: "\345\220\265"
        string_val: "\350\201\214"
        string_val: "\346\265\216"
        string_val: "\346\216\211"
        string_val: "\347\250\213"
        string_val: "\351\233\252"
        string_val: "\342\200\235"
        string_val: "\345\225\206"
        string_val: "\346\200\252"
        string_val: "\345\244\204"
        string_val: "\350\277\236"
        string_val: "\350\241\245"
        string_val: "\346\216\250"
        string_val: "\346\240\274"
        string_val: "\345\272\267"
        string_val: "\346\231\223"
        string_val: "\350\266\237"
        string_val: "\350\266\212"
        string_val: "\345\221\206"
        string_val: "\345\205\267"
        string_val: "\345\215\260"
        string_val: "\345\277\265"
        string_val: "\345\256\263"
        string_val: "\346\230\245"
        string_val: "\345\215\216"
        string_val: "\347\273\210"
        string_val: "\345\223\237"
        string_val: "\350\257\273"
        string_val: "\346\200\247"
        string_val: "\346\207\222"
        string_val: "\345\223\274"
        string_val: "\345\240\202"
        string_val: "\345\217\212"
        string_val: "F"
        string_val: "\344\270\242"
        string_val: "\350\256\270"
        string_val: "\345\201\245"
        string_val: "\345\221\275"
        string_val: "\345\210\235"
        string_val: "\345\272\247"
        string_val: "\351\237\263"
        string_val: "\345\205\245"
        string_val: "\344\274\244"
        string_val: "\345\233\242"
        string_val: "\346\212\275"
        string_val: "+"
        string_val: "\346\255\245"
        string_val: "\346\255\244"
        string_val: "\346\214\201"
        string_val: "\345\237\216"
        string_val: "\344\273\213"
        string_val: "\346\225\242"
…
      }
    }
  }
}
node {
  name: "save/Assign_49"
  op: "Assign"
  input: "model/att_seq2seq/decode/attention/att_keys/biases"
  input: "save/RestoreV2_49"
  attr {
    key: "T"
    value {
      type: DT_FLOAT
    }
  }
  attr {
    key: "_class"
    value {
      list {
        s: "loc:@model/att_seq2seq/decode/attention/att_keys/biases"
      }
    }
  }
  attr {
    key: "_output_shapes"
    value {
      list {
        shape {
          dim {
            size: 256
          }
        }
      }
    }
  }
  attr {
    key: "use_locking"
    value {
      b: true
    }
  }
  attr {
    key: "validate_shape"
    value {
      b: true
    }
  }
}
node {
  name: "save/RestoreV2_50/tensor_names"
  op: "Const"
  attr {
    key: "_output_shapes"
    value {
      list {
        shape {
          dim {
            size: 1
          }
        }
      }
    }
  }
  attr {
    key: "dtype"
    value {
      type: DT_STRING
    }
  }
  attr {
    key: "value"
    value {
      tensor {
        dtype: DT_STRING
        tensor_shape {
          dim {
            size: 1
          }
        }
        string_val: "model/att_seq2seq/decode/attention/att_keys/weights"
      }
    }
  }
}
node {
  name: "save/RestoreV2_50/shape_and_slices"
  op: "Const"
  attr {
    key: "_output_shapes"
    value {
      list {
        shape {
          dim {
            size: 1
          }
        }
      }
    }
  }
  attr {
    key: "dtype"
    value {
      type: DT_STRING
    }
  }
  attr {
    key: "value"
    value {
      tensor {
        dtype: DT_STRING
        tensor_shape {
          dim {
            size: 1
          }
        }
        string_val: ""
      }
    }
  }
}
node {
  name: "save/RestoreV2_50"
  op: "RestoreV2"
  input: "save/Const"
  input: "save/RestoreV2_50/tensor_names"
  input: "save/RestoreV2_50/shape_and_slices"
  attr {
    key: "_output_shapes"
    value {
      list {
        shape {
          unknown_rank: true
        }
      }
    }
  }
  attr {
    key: "dtypes"
    value {
      list {
        type: DT_FLOAT
      }
    }
  }
}
node {
  name: "save/Assign_50"
  op: "Assign"
  input: "model/att_seq2seq/decode/attention/att_keys/weights"
  input: "save/RestoreV2_50"
  attr {
    key: "T"
    value {
      type: DT_FLOAT
    }
  }
  attr {
    key: "_class"
    value {
      list {
        s: "loc:@model/att_seq2seq/decode/attention/att_keys/weights"
      }
    }
  }
  attr {
    key: "_output_shapes"
    value {
      list {
        shape {
          dim {
            size: 512
          }
          dim {
            size: 256
          }
        }
      }
    }
  }
  attr {
    key: "use_locking"
    value {
      b: true
    }
  }
  attr {
    key: "validate_shape"
    value {
      b: true
    }
  }
}
node {
  name: "save/RestoreV2_51/tensor_names"
  op: "Const"
  attr {
    key: "_output_shapes"
    value {
      list {
        shape {
          dim {
            size: 1
          }
        }
      }
    }
  }
  attr {
    key: "dtype"
    value {
      type: DT_STRING
    }
  }
  attr {
    key: "value"
    value {
      tensor {
        dtype: DT_STRING
        tensor_shape {
          dim {
            size: 1
          }
        }
        string_val: "model/att_seq2seq/decode/attention/att_query/biases"
      }
    }
  }
}
node {
  name: "save/RestoreV2_51/shape_and_slices"
  op: "Const"
  attr {
    key: "_output_shapes"
    value {
      list {
        shape {
          dim {
            size: 1
          }
        }
      }
    }
  }
  attr {
    key: "dtype"
    value {
      type: DT_STRING
    }
  }
  attr {
    key: "value"
    value {
      tensor {
        dtype: DT_STRING
        tensor_shape {
          dim {
            size: 1
          }
        }
        string_val: ""
      }
    }
  }
}
node {
  name: "save/RestoreV2_51"
  op: "RestoreV2"
  input: "save/Const"
  input: "save/RestoreV2_51/tensor_names"
  input: "save/RestoreV2_51/shape_and_slices"
  attr {
    key: "_output_shapes"
    value {
      list {
        shape {
          unknown_rank: true
        }
      }
    }
  }
  attr {
    key: "dtypes"
    value {
      list {
        type: DT_FLOAT
      }
    }
  }
}
node {
  name: "save/Assign_51"
  op: "Assign"
  input: "model/att_seq2seq/decode/attention/att_query/biases"
  input: "save/RestoreV2_51"
  attr {
    key: "T"
    value {
      type: DT_FLOAT
    }
  }
  attr {
    key: "_class"
    value {
      list {
        s: "loc:@model/att_seq2seq/decode/attention/att_query/biases"
      }
    }
  }
  attr {
    key: "_output_shapes"
    value {
      list {
        shape {
          dim {
            size: 256
          }
        }
      }
    }
  }
  attr {
    key: "use_locking"
    value {
      b: true
    }
  }
  attr {
    key: "validate_shape"
    value {
      b: true
    }
  }
}
node {
  name: "save/RestoreV2_52/tensor_names"
  op: "Const"
  attr {
    key: "_output_shapes"
    value {
      list {
        shape {
          dim {
            size: 1
          }
        }
      }
    }
  }
  attr {
    key: "dtype"
    value {
      type: DT_STRING
    }
  }
  attr {
    key: "value"
    value {
      tensor {
        dtype: DT_STRING
        tensor_shape {
          dim {
            size: 1
          }
        }
        string_val: "model/att_seq2seq/decode/attention/att_query/weights"
      }
    }
  }
}
node {
  name: "save/RestoreV2_52/shape_and_slices"
  op: "Const"
  attr {
    key: "_output_shapes"
    value {
      list {
        shape {
          dim {
            size: 1
          }
        }
      }
    }
  }
  attr {
    key: "dtype"
    value {
      type: DT_STRING
    }
  }
  attr {
    key: "value"
    value {
      tensor {
        dtype: DT_STRING
        tensor_shape {
          dim {
            size: 1
          }
        }
        string_val: ""
      }
    }
  }
}
node {
  name: "save/RestoreV2_52"
  op: "RestoreV2"
  input: "save/Const"
  input: "save/RestoreV2_52/tensor_names"
  input: "save/RestoreV2_52/shape_and_slices"
  attr {
    key: "_output_shapes"
    value {
      list {
        shape {
          unknown_rank: true
        }
      }
    }
  }
  attr {
    key: "dtypes"
    value {
      list {
        type: DT_FLOAT
      }
    }
  }
}
node {
  name: "save/Assign_52"
  op: "Assign"
  input: "model/att_seq2seq/decode/attention/att_query/weights"
  input: "save/RestoreV2_52"
  attr {
    key: "T"
    value {
      type: DT_FLOAT
    }
  }
  attr {
    key: "_class"
    value {
      list {
        s: "loc:@model/att_seq2seq/decode/attention/att_query/weights"
      }
    }
  }
  attr {
    key: "_output_shapes"
    value {
      list {
        shape {
          dim {
            size: 256
          }
          dim {
            size: 256
          }
        }
      }
    }
  }
  attr {
    key: "use_locking"
    value {
      b: true
    }
  }
  attr {
    key: "validate_shape"
    value {
      b: true
    }
  }
}
node {
  name: "save/RestoreV2_53/tensor_names"
  op: "Const"
  attr {
    key: "_output_shapes"
    value {
      list {
        shape {
          dim {
            size: 1
          }
        }
      }
    }
  }
  attr {
    key: "dtype"
    value {
      type: DT_STRING
    }
  }
  attr {
    key: "value"
    value {
      tensor {
        dtype: DT_STRING
        tensor_shape {
          dim {
            size: 1
          }
        }
        string_val: "model/att_seq2seq/decode/attention_decoder/decoder/attention_mix/biases"
      }
    }
  }
}
node {
  name: "save/RestoreV2_53/shape_and_slices"
  op: "Const"
  attr {
    key: "_output_shapes"
    value {
      list {
        shape {
          dim {
            size: 1
          }
        }
      }
    }
  }
  attr {
    key: "dtype"
    value {
      type: DT_STRING
    }
  }
  attr {
    key: "value"
    value {
      tensor {
        dtype: DT_STRING
        tensor_shape {
          dim {
            size: 1
          }
        }
        string_val: ""
      }
    }
  }
}
node {
  name: "save/RestoreV2_53"
  op: "RestoreV2"
  input: "save/Const"
  input: "save/RestoreV2_53/tensor_names"
  input: "save/RestoreV2_53/shape_and_slices"
  attr {
    key: "_output_shapes"
    value {
      list {
        shape {
          unknown_rank: true
        }
      }
    }
  }
  attr {
    key: "dtypes"
    value {
      list {
        type: DT_FLOAT
      }
    }
  }
}
node {
  name: "save/Assign_53"
  op: "Assign"
  input: "model/att_seq2seq/decode/attention_decoder/decoder/attention_mix/biases"
  input: "save/RestoreV2_53"
  attr {
    key: "T"
    value {
      type: DT_FLOAT
    }
  }
  attr {
    key: "_class"
    value {
      list {
        s: "loc:@model/att_seq2seq/decode/attention_decoder/decoder/attention_mix/biases"
      }
    }
  }
  attr {
    key: "_output_shapes"
    value {
      list {
        shape {
          dim {
            size: 256
          }
        }
      }
    }
  }
  attr {
    key: "use_locking"
    value {
      b: true
    }
  }
  attr {
    key: "validate_shape"
    value {
      b: true
    }
  }
}
node {
  name: "save/RestoreV2_54/tensor_names"
  op: "Const"
  attr {
    key: "_output_shapes"
    value {
      list {
        shape {
          dim {
            size: 1
          }
        }
      }
    }
  }
  attr {
    key: "dtype"
    value {
      type: DT_STRING
    }
  }
  attr {
    key: "value"
    value {
      tensor {
        dtype: DT_STRING
        tensor_shape {
          dim {
            size: 1
          }
        }
        string_val: "model/att_seq2seq/decode/attention_decoder/decoder/attention_mix/weights"
      }
    }
  }
}
node {
  name: "save/RestoreV2_54/shape_and_slices"
  op: "Const"
  attr {
    key: "_output_shapes"
    value {
      list {
        shape {
          dim {
            size: 1
          }
        }
      }
    }
  }
  attr {
    key: "dtype"
    value {
      type: DT_STRING
    }
  }
  attr {
    key: "value"
    value {
      tensor {
        dtype: DT_STRING
        tensor_shape {
          dim {
            size: 1
          }
        }
        string_val: ""
      }
    }
  }
}
node {
  name: "save/RestoreV2_54"
  op: "RestoreV2"
  input: "save/Const"
  input: "save/RestoreV2_54/tensor_names"
  input: "save/RestoreV2_54/shape_and_slices"
  attr {
    key: "_output_shapes"
    value {
      list {
        shape {
          unknown_rank: true
        }
      }
    }
  }
  attr {
    key: "dtypes"
    value {
      list {
        type: DT_FLOAT
      }
    }
  }
}
node {
  name: "save/Assign_54"
  op: "Assign"
  input: "model/att_seq2seq/decode/attention_decoder/decoder/attention_mix/weights"
  input: "save/RestoreV2_54"
  attr {
    key: "T"
    value {
      type: DT_FLOAT
    }
  }
  attr {
    key: "_class"
    value {
      list {
        s: "loc:@model/att_seq2seq/decode/attention_decoder/decoder/attention_mix/weights"
      }
    }
  }
  attr {
    key: "_output_shapes"
    value {
      list {
        shape {
          dim {
            size: 768
          }
          dim {
            size: 256
          }
        }
      }
    }
  }
  attr {
    key: "use_locking"
    value {
      b: true
    }
  }
  attr {
    key: "validate_shape"
    value {
      b: true
    }
  }
}
node {
  name: "save/RestoreV2_55/tensor_names"
  op: "Const"
  attr {
    key: "_output_shapes"
    value {
      list {
        shape {
          dim {
            size: 1
          }
        }
      }
    }
  }
  attr {
    key: "dtype"
    value {
      type: DT_STRING
    }
  }
  attr {
    key: "value"
    value {
      tensor {
        dtype: DT_STRING
        tensor_shape {
          dim {
            size: 1
          }
        }
        string_val: "model/att_seq2seq/decode/attention_decoder/decoder/gru_cell/candidate/biases"
      }
    }
  }
}
node {
  name: "save/RestoreV2_55/shape_and_slices"
  op: "Const"
  attr {
    key: "_output_shapes"
    value {
      list {
        shape {
          dim {
            size: 1
          }
        }
      }
    }
  }
  attr {
    key: "dtype"
    value {
      type: DT_STRING
    }
  }
  attr {
    key: "value"
    value {
      tensor {
        dtype: DT_STRING
        tensor_shape {
          dim {
            size: 1
          }
        }
        string_val: ""
      }
    }
  }
}
node {
  name: "save/RestoreV2_55"
  op: "RestoreV2"
  input: "save/Const"
  input: "save/RestoreV2_55/tensor_names"
  input: "save/RestoreV2_55/shape_and_slices"
  attr {
    key: "_output_shapes"
    value {
      list {
        shape {
          unknown_rank: true
        }
      }
    }
  }
  attr {
    key: "dtypes"
    value {
      list {
        type: DT_FLOAT
      }
    }
  }
}
node {
  name: "save/Assign_55"
  op: "Assign"
  input: "model/att_seq2seq/decode/attention_decoder/decoder/gru_cell/candidate/biases"
  input: "save/RestoreV2_55"
  attr {
    key: "T"
    value {
      type: DT_FLOAT
    }
  }
  attr {
    key: "_class"
    value {
      list {
        s: "loc:@model/att_seq2seq/decode/attention_decoder/decoder/gru_cell/candidate/biases"
      }
    }
  }
  attr {
    key: "_output_shapes"
    value {
      list {
        shape {
          dim {
            size: 256
          }
        }
      }
    }
  }
  attr {
    key: "use_locking"
    value {
      b: true
    }
  }
  attr {
    key: "validate_shape"
    value {
      b: true
    }
  }
}
node {
  name: "save/RestoreV2_56/tensor_names"
  op: "Const"
  attr {
    key: "_output_shapes"
    value {
      list {
        shape {
          dim {
            size: 1
          }
        }
      }
    }
  }
  attr {
    key: "dtype"
    value {
      type: DT_STRING
    }
  }
  attr {
    key: "value"
    value {
      tensor {
        dtype: DT_STRING
        tensor_shape {
          dim {
            size: 1
          }
        }
        string_val: "model/att_seq2seq/decode/attention_decoder/decoder/gru_cell/candidate/weights"
      }
    }
  }
}
node {
  name: "save/RestoreV2_56/shape_and_slices"
  op: "Const"
  attr {
    key: "_output_shapes"
    value {
      list {
        shape {
          dim {
            size: 1
          }
        }
      }
    }
  }
  attr {
    key: "dtype"
    value {
      type: DT_STRING
    }
  }
  attr {
    key: "value"
    value {
      tensor {
        dtype: DT_STRING
        tensor_shape {
          dim {
            size: 1
          }
        }
        string_val: ""
      }
    }
  }
}
node {
  name: "save/RestoreV2_56"
  op: "RestoreV2"
  input: "save/Const"
  input: "save/RestoreV2_56/tensor_names"
  input: "save/RestoreV2_56/shape_and_slices"
  attr {
    key: "_output_shapes"
    value {
      list {
        shape {
          unknown_rank: true
        }
      }
    }
  }
  attr {
    key: "dtypes"
    value {
      list {
        type: DT_FLOAT
      }
    }
  }
}
node {
  name: "save/Assign_56"
  op: "Assign"
  input: "model/att_seq2seq/decode/attention_decoder/decoder/gru_cell/candidate/weights"
  input: "save/RestoreV2_56"
  attr {
    key: "T"
    value {
      type: DT_FLOAT
    }
  }
  attr {
    key: "_class"
    value {
      list {
        s: "loc:@model/att_seq2seq/decode/attention_decoder/decoder/gru_cell/candidate/weights"
      }
    }
  }
  attr {
    key: "_output_shapes"
    value {
      list {
        shape {
          dim {
            size: 1024
          }
          dim {
            size: 256
          }
        }
      }
    }
  }
  attr {
    key: "use_locking"
    value {
      b: true
    }
  }
  attr {
    key: "validate_shape"
    value {
      b: true
    }
  }
}
node {
  name: "save/RestoreV2_57/tensor_names"
  op: "Const"
  attr {
    key: "_output_shapes"
    value {
      list {
        shape {
          dim {
            size: 1
          }
        }
      }
    }
  }
  attr {
    key: "dtype"
    value {
      type: DT_STRING
    }
  }
  attr {
    key: "value"
    value {
      tensor {
        dtype: DT_STRING
        tensor_shape {
          dim {
            size: 1
          }
        }
        string_val: "model/att_seq2seq/decode/attention_decoder/decoder/gru_cell/gates/biases"
      }
    }
  }
}
node {
  name: "save/RestoreV2_57/shape_and_slices"
  op: "Const"
  attr {
    key: "_output_shapes"
    value {
      list {
        shape {
          dim {
            size: 1
          }
        }
      }
    }
  }
  attr {
    key: "dtype"
    value {
      type: DT_STRING
    }
  }
  attr {
    key: "value"
    value {
      tensor {
        dtype: DT_STRING
        tensor_shape {
          dim {
            size: 1
          }
        }
        string_val: ""
      }
    }
  }
}
node {
  name: "save/RestoreV2_57"
  op: "RestoreV2"
  input: "save/Const"
  input: "save/RestoreV2_57/tensor_names"
  input: "save/RestoreV2_57/shape_and_slices"
  attr {
    key: "_output_shapes"
    value {
      list {
        shape {
          unknown_rank: true
        }
      }
    }
  }
  attr {
    key: "dtypes"
    value {
      list {
        type: DT_FLOAT
      }
    }
  }
}
node {
  name: "save/Assign_57"
  op: "Assign"
  input: "model/att_seq2seq/decode/attention_decoder/decoder/gru_cell/gates/biases"
  input: "save/RestoreV2_57"
  attr {
    key: "T"
    value {
      type: DT_FLOAT
    }
  }
  attr {
    key: "_class"
    value {
      list {
        s: "loc:@model/att_seq2seq/decode/attention_decoder/decoder/gru_cell/gates/biases"
      }
    }
  }
  attr {
    key: "_output_shapes"
    value {
      list {
        shape {
          dim {
            size: 512
          }
        }
      }
    }
  }
  attr {
    key: "use_locking"
    value {
      b: true
    }
  }
  attr {
    key: "validate_shape"
    value {
      b: true
    }
  }
}
node {
  name: "save/RestoreV2_58/tensor_names"
  op: "Const"
  attr {
    key: "_output_shapes"
    value {
      list {
        shape {
          dim {
            size: 1
          }
        }
      }
    }
  }
  attr {
    key: "dtype"
    value {
      type: DT_STRING
    }
  }
  attr {
    key: "value"
    value {
      tensor {
        dtype: DT_STRING
        tensor_shape {
          dim {
            size: 1
          }
        }
        string_val: "model/att_seq2seq/decode/attention_decoder/decoder/gru_cell/gates/weights"
      }
    }
  }
}
node {
  name: "save/RestoreV2_58/shape_and_slices"
  op: "Const"
  attr {
    key: "_output_shapes"
    value {
      list {
        shape {
          dim {
            size: 1
          }
        }
      }
    }
  }
  attr {
    key: "dtype"
    value {
      type: DT_STRING
    }
  }
  attr {
    key: "value"
    value {
      tensor {
        dtype: DT_STRING
        tensor_shape {
          dim {
            size: 1
          }
        }
        string_val: ""
      }
    }
  }
}
node {
  name: "save/RestoreV2_58"
  op: "RestoreV2"
  input: "save/Const"
  input: "save/RestoreV2_58/tensor_names"
  input: "save/RestoreV2_58/shape_and_slices"
  attr {
    key: "_output_shapes"
    value {
      list {
        shape {
          unknown_rank: true
        }
      }
    }
  }
  attr {
    key: "dtypes"
    value {
      list {
        type: DT_FLOAT
      }
    }
  }
}
node {
  name: "save/Assign_58"
  op: "Assign"
  input: "model/att_seq2seq/decode/attention_decoder/decoder/gru_cell/gates/weights"
  input: "save/RestoreV2_58"
  attr {
    key: "T"
    value {
      type: DT_FLOAT
    }
  }
  attr {
    key: "_class"
    value {
      list {
        s: "loc:@model/att_seq2seq/decode/attention_decoder/decoder/gru_cell/gates/weights"
      }
    }
  }
  attr {
    key: "_output_shapes"
    value {
      list {
        shape {
          dim {
            size: 1024
          }
          dim {
            size: 512
          }
        }
      }
    }
  }
  attr {
    key: "use_locking"
    value {
      b: true
    }
  }
  attr {
    key: "validate_shape"
    value {
      b: true
    }
  }
}
node {
  name: "save/RestoreV2_59/tensor_names"
  op: "Const"
  attr {
    key: "_output_shapes"
    value {
      list {
        shape {
          dim {
            size: 1
          }
        }
      }
    }
  }
  attr {
    key: "dtype"
    value {
      type: DT_STRING
    }
  }
  attr {
    key: "value"
    value {
      tensor {
        dtype: DT_STRING
        tensor_shape {
          dim {
            size: 1
          }
        }
        string_val: "model/att_seq2seq/decode/attention_decoder/decoder/logits/biases"
      }
    }
  }
}
node {
  name: "save/RestoreV2_59/shape_and_slices"
  op: "Const"
  attr {
    key: "_output_shapes"
    value {
      list {
        shape {
          dim {
            size: 1
          }
        }
      }
    }
  }
  attr {
    key: "dtype"
    value {
      type: DT_STRING
    }
  }
  attr {
    key: "value"
    value {
      tensor {
        dtype: DT_STRING
        tensor_shape {
          dim {
            size: 1
          }
        }
        string_val: ""
      }
    }
  }
}
node {
  name: "save/RestoreV2_59"
  op: "RestoreV2"
  input: "save/Const"
  input: "save/RestoreV2_59/tensor_names"
  input: "save/RestoreV2_59/shape_and_slices"
  attr {
    key: "_output_shapes"
    value {
      list {
        shape {
          unknown_rank: true
        }
      }
    }
  }
  attr {
    key: "dtypes"
    value {
      list {
        type: DT_FLOAT
      }
    }
  }
}
node {
  name: "save/Assign_59"
  op: "Assign"
  input: "model/att_seq2seq/decode/attention_decoder/decoder/logits/biases"
  input: "save/RestoreV2_59"
  attr {
    key: "T"
    value {
      type: DT_FLOAT
    }
  }
  attr {
    key: "_class"
    value {
      list {
        s: "loc:@model/att_seq2seq/decode/attention_decoder/decoder/logits/biases"
      }
    }
  }
  attr {
    key: "_output_shapes"
    value {
      list {
        shape {
          dim {
            size: 3143
          }
        }
      }
    }
  }
  attr {
    key: "use_locking"
    value {
      b: true
    }
  }
  attr {
    key: "validate_shape"
    value {
      b: true
    }
  }
}
node {
  name: "save/RestoreV2_60/tensor_names"
  op: "Const"
  attr {
    key: "_output_shapes"
    value {
      list {
        shape {
          dim {
            size: 1
          }
        }
      }
    }
  }
  attr {
    key: "dtype"
    value {
      type: DT_STRING
    }
  }
  attr {
    key: "value"
    value {
      tensor {
        dtype: DT_STRING
        tensor_shape {
          dim {
            size: 1
          }
        }
        string_val: "model/att_seq2seq/decode/attention_decoder/decoder/logits/weights"
      }
    }
  }
}
node {
  name: "save/RestoreV2_60/shape_and_slices"
  op: "Const"
  attr {
    key: "_output_shapes"
    value {
      list {
        shape {
          dim {
            size: 1
          }
        }
      }
    }
  }
  attr {
    key: "dtype"
    value {
      type: DT_STRING
    }
  }
  attr {
    key: "value"
    value {
      tensor {
        dtype: DT_STRING
        tensor_shape {
          dim {
            size: 1
          }
        }
        string_val: ""
      }
    }
  }
}
node {
  name: "save/RestoreV2_60"
  op: "RestoreV2"
  input: "save/Const"
  input: "save/RestoreV2_60/tensor_names"
  input: "save/RestoreV2_60/shape_and_slices"
  attr {
    key: "_output_shapes"
    value {
      list {
        shape {
          unknown_rank: true
        }
      }
    }
  }
  attr {
    key: "dtypes"
    value {
      list {
        type: DT_FLOAT
      }
    }
  }
}
node {
  name: "save/Assign_60"
  op: "Assign"
  input: "model/att_seq2seq/decode/attention_decoder/decoder/logits/weights"
  input: "save/RestoreV2_60"
  attr {
    key: "T"
    value {
      type: DT_FLOAT
    }
  }
  attr {
    key: "_class"
    value {
      list {
        s: "loc:@model/att_seq2seq/decode/attention_decoder/decoder/logits/weights"
      }
    }
  }
  attr {
    key: "_output_shapes"
    value {
      list {
        shape {
          dim {
            size: 256
          }
          dim {
            size: 3143
          }
        }
      }
    }
  }
  attr {
    key: "use_locking"
    value {
      b: true
    }
  }
  attr {
    key: "validate_shape"
    value {
      b: true
    }
  }
}
node {
  name: "save/RestoreV2_61/tensor_names"
  op: "Const"
  attr {
    key: "_output_shapes"
    value {
      list {
        shape {
          dim {
            size: 1
          }
        }
      }
    }
  }
  attr {
    key: "dtype"
    value {
      type: DT_STRING
    }
  }
  attr {
    key: "value"
    value {
      tensor {
        dtype: DT_STRING
        tensor_shape {
          dim {
            size: 1
          }
        }
        string_val: "model/att_seq2seq/decode/target_embedding/W"
      }
    }
  }
}
node {
  name: "save/RestoreV2_61/shape_and_slices"
  op: "Const"
  attr {
    key: "_output_shapes"
    value {
      list {
        shape {
          dim {
            size: 1
          }
        }
      }
    }
  }
  attr {
    key: "dtype"
    value {
      type: DT_STRING
    }
  }
  attr {
    key: "value"
    value {
      tensor {
        dtype: DT_STRING
        tensor_shape {
          dim {
            size: 1
          }
        }
        string_val: ""
      }
    }
  }
}
node {
  name: "save/RestoreV2_61"
  op: "RestoreV2"
  input: "save/Const"
  input: "save/RestoreV2_61/tensor_names"
  input: "save/RestoreV2_61/shape_and_slices"
  attr {
    key: "_output_shapes"
    value {
      list {
        shape {
          unknown_rank: true
        }
      }
    }
  }
  attr {
    key: "dtypes"
    value {
      list {
        type: DT_FLOAT
      }
    }
  }
}
node {
  name: "save/Assign_61"
  op: "Assign"
  input: "model/att_seq2seq/decode/target_embedding/W"
  input: "save/RestoreV2_61"
  attr {
    key: "T"
    value {
      type: DT_FLOAT
    }
  }
  attr {
    key: "_class"
    value {
      list {
        s: "loc:@model/att_seq2seq/decode/target_embedding/W"
      }
    }
  }
  attr {
    key: "_output_shapes"
    value {
      list {
        shape {
          dim {
            size: 3143
          }
          dim {
            size: 256
          }
        }
      }
    }
  }
  attr {
    key: "use_locking"
    value {
      b: true
    }
  }
  attr {
    key: "validate_shape"
    value {
      b: true
    }
  }
}
node {
  name: "save/RestoreV2_62/tensor_names"
  op: "Const"
  attr {
    key: "_output_shapes"
    value {
      list {
        shape {
          dim {
            size: 1
          }
        }
      }
    }
  }
  attr {
    key: "dtype"
    value {
      type: DT_STRING
    }
  }
  attr {
    key: "value"
    value {
      tensor {
        dtype: DT_STRING
        tensor_shape {
          dim {
            size: 1
          }
        }
        string_val: "model/att_seq2seq/encode/bidi_rnn_encoder/bidirectional_rnn/bw/gru_cell/candidate/biases"
      }
    }
  }
}
node {
  name: "save/RestoreV2_62/shape_and_slices"
  op: "Const"
  attr {
    key: "_output_shapes"
    value {
      list {
        shape {
          dim {
            size: 1
          }
        }
      }
    }
  }
  attr {
    key: "dtype"
    value {
      type: DT_STRING
    }
  }
  attr {
    key: "value"
    value {
      tensor {
        dtype: DT_STRING
        tensor_shape {
          dim {
            size: 1
          }
        }
        string_val: ""
      }
    }
  }
}
node {
  name: "save/RestoreV2_62"
  op: "RestoreV2"
  input: "save/Const"
  input: "save/RestoreV2_62/tensor_names"
  input: "save/RestoreV2_62/shape_and_slices"
  attr {
    key: "_output_shapes"
    value {
      list {
        shape {
          unknown_rank: true
        }
      }
    }
  }
  attr {
    key: "dtypes"
    value {
      list {
        type: DT_FLOAT
      }
    }
  }
}
node {
  name: "save/Assign_62"
  op: "Assign"
  input: "model/att_seq2seq/encode/bidi_rnn_encoder/bidirectional_rnn/bw/gru_cell/candidate/biases"
  input: "save/RestoreV2_62"
  attr {
    key: "T"
    value {
      type: DT_FLOAT
    }
  }
  attr {
    key: "_class"
    value {
      list {
        s: "loc:@model/att_seq2seq/encode/bidi_rnn_encoder/bidirectional_rnn/bw/gru_cell/candidate/biases"
      }
    }
  }
  attr {
    key: "_output_shapes"
    value {
      list {
        shape {
          dim {
            size: 256
          }
        }
      }
    }
  }
  attr {
    key: "use_locking"
    value {
      b: true
    }
  }
  attr {
    key: "validate_shape"
    value {
      b: true
    }
  }
}
node {
  name: "save/RestoreV2_63/tensor_names"
  op: "Const"
  attr {
    key: "_output_shapes"
    value {
      list {
        shape {
          dim {
            size: 1
          }
        }
      }
    }
  }
  attr {
    key: "dtype"
    value {
      type: DT_STRING
    }
  }
  attr {
    key: "value"
    value {
      tensor {
        dtype: DT_STRING
        tensor_shape {
          dim {
            size: 1
          }
        }
        string_val: "model/att_seq2seq/encode/bidi_rnn_encoder/bidirectional_rnn/bw/gru_cell/candidate/weights"
      }
    }
  }
}
node {
  name: "save/RestoreV2_63/shape_and_slices"
  op: "Const"
  attr {
    key: "_output_shapes"
    value {
      list {
        shape {
          dim {
            size: 1
          }
        }
      }
    }
  }
  attr {
    key: "dtype"
    value {
      type: DT_STRING
    }
  }
  attr {
    key: "value"
    value {
      tensor {
        dtype: DT_STRING
        tensor_shape {
          dim {
            size: 1
          }
        }
        string_val: ""
      }
    }
  }
}
node {
  name: "save/RestoreV2_63"
  op: "RestoreV2"
  input: "save/Const"
  input: "save/RestoreV2_63/tensor_names"
  input: "save/RestoreV2_63/shape_and_slices"
  attr {
    key: "_output_shapes"
    value {
      list {
        shape {
          unknown_rank: true
        }
      }
    }
  }
  attr {
    key: "dtypes"
    value {
      list {
        type: DT_FLOAT
      }
    }
  }
}
node {
  name: "save/Assign_63"
  op: "Assign"
  input: "model/att_seq2seq/encode/bidi_rnn_encoder/bidirectional_rnn/bw/gru_cell/candidate/weights"
  input: "save/RestoreV2_63"
  attr {
    key: "T"
    value {
      type: DT_FLOAT
    }
  }
  attr {
    key: "_class"
    value {
      list {
        s: "loc:@model/att_seq2seq/encode/bidi_rnn_encoder/bidirectional_rnn/bw/gru_cell/candidate/weights"
      }
    }
  }
  attr {
    key: "_output_shapes"
    value {
      list {
        shape {
          dim {
            size: 512
          }
          dim {
            size: 256
          }
        }
      }
    }
  }
  attr {
    key: "use_locking"
    value {
      b: true
    }
  }
  attr {
    key: "validate_shape"
    value {
      b: true
    }
  }
}
node {
  name: "save/RestoreV2_64/tensor_names"
  op: "Const"
  attr {
    key: "_output_shapes"
    value {
      list {
        shape {
          dim {
            size: 1
          }
        }
      }
    }
  }
  attr {
    key: "dtype"
    value {
      type: DT_STRING
    }
  }
  attr {
    key: "value"
    value {
      tensor {
        dtype: DT_STRING
        tensor_shape {
          dim {
            size: 1
          }
        }
        string_val: "model/att_seq2seq/encode/bidi_rnn_encoder/bidirectional_rnn/bw/gru_cell/gates/biases"
      }
    }
  }
}
node {
  name: "save/RestoreV2_64/shape_and_slices"
  op: "Const"
  attr {
    key: "_output_shapes"
    value {
      list {
        shape {
          dim {
            size: 1
          }
        }
      }
    }
  }
  attr {
    key: "dtype"
    value {
      type: DT_STRING
    }
  }
  attr {
    key: "value"
    value {
      tensor {
        dtype: DT_STRING
        tensor_shape {
          dim {
            size: 1
          }
        }
        string_val: ""
      }
    }
  }
}
node {
  name: "save/RestoreV2_64"
  op: "RestoreV2"
  input: "save/Const"
  input: "save/RestoreV2_64/tensor_names"
  input: "save/RestoreV2_64/shape_and_slices"
  attr {
    key: "_output_shapes"
    value {
      list {
        shape {
          unknown_rank: true
        }
      }
    }
  }
  attr {
    key: "dtypes"
    value {
      list {
        type: DT_FLOAT
      }
    }
  }
}
node {
  name: "save/Assign_64"
  op: "Assign"
  input: "model/att_seq2seq/encode/bidi_rnn_encoder/bidirectional_rnn/bw/gru_cell/gates/biases"
  input: "save/RestoreV2_64"
  attr {
    key: "T"
    value {
      type: DT_FLOAT
    }
  }
  attr {
    key: "_class"
    value {
      list {
        s: "loc:@model/att_seq2seq/encode/bidi_rnn_encoder/bidirectional_rnn/bw/gru_cell/gates/biases"
      }
    }
  }
  attr {
    key: "_output_shapes"
    value {
      list {
        shape {
          dim {
            size: 512
          }
        }
      }
    }
  }
  attr {
    key: "use_locking"
    value {
      b: true
    }
  }
  attr {
    key: "validate_shape"
    value {
      b: true
    }
  }
}
node {
  name: "save/RestoreV2_65/tensor_names"
  op: "Const"
  attr {
    key: "_output_shapes"
    value {
      list {
        shape {
          dim {
            size: 1
          }
        }
      }
    }
  }
  attr {
    key: "dtype"
    value {
      type: DT_STRING
    }
  }
  attr {
    key: "value"
    value {
      tensor {
        dtype: DT_STRING
        tensor_shape {
          dim {
            size: 1
          }
        }
        string_val: "model/att_seq2seq/encode/bidi_rnn_encoder/bidirectional_rnn/bw/gru_cell/gates/weights"
      }
    }
  }
}
node {
  name: "save/RestoreV2_65/shape_and_slices"
  op: "Const"
  attr {
    key: "_output_shapes"
    value {
      list {
        shape {
          dim {
            size: 1
          }
        }
      }
    }
  }
  attr {
    key: "dtype"
    value {
      type: DT_STRING
    }
  }
  attr {
    key: "value"
    value {
      tensor {
        dtype: DT_STRING
        tensor_shape {
          dim {
            size: 1
          }
        }
        string_val: ""
      }
    }
  }
}
node {
  name: "save/RestoreV2_65"
  op: "RestoreV2"
  input: "save/Const"
  input: "save/RestoreV2_65/tensor_names"
  input: "save/RestoreV2_65/shape_and_slices"
  attr {
    key: "_output_shapes"
    value {
      list {
        shape {
          unknown_rank: true
        }
      }
    }
  }
  attr {
    key: "dtypes"
    value {
      list {
        type: DT_FLOAT
      }
    }
  }
}
node {
  name: "save/Assign_65"
  op: "Assign"
  input: "model/att_seq2seq/encode/bidi_rnn_encoder/bidirectional_rnn/bw/gru_cell/gates/weights"
  input: "save/RestoreV2_65"
  attr {
    key: "T"
    value {
      type: DT_FLOAT
    }
  }
  attr {
    key: "_class"
    value {
      list {
        s: "loc:@model/att_seq2seq/encode/bidi_rnn_encoder/bidirectional_rnn/bw/gru_cell/gates/weights"
      }
    }
  }
  attr {
    key: "_output_shapes"
    value {
      list {
        shape {
          dim {
            size: 512
          }
          dim {
            size: 512
          }
        }
      }
    }
  }
  attr {
    key: "use_locking"
    value {
      b: true
    }
  }
  attr {
    key: "validate_shape"
    value {
      b: true
    }
  }
}
node {
  name: "save/RestoreV2_66/tensor_names"
  op: "Const"
  attr {
    key: "_output_shapes"
    value {
      list {
        shape {
          dim {
            size: 1
          }
        }
      }
    }
  }
  attr {
    key: "dtype"
    value {
      type: DT_STRING
    }
  }
  attr {
    key: "value"
    value {
      tensor {
        dtype: DT_STRING
        tensor_shape {
          dim {
            size: 1
          }
        }
        string_val: "model/att_seq2seq/encode/bidi_rnn_encoder/bidirectional_rnn/fw/gru_cell/candidate/biases"
      }
    }
  }
}
node {
  name: "save/RestoreV2_66/shape_and_slices"
  op: "Const"
  attr {
    key: "_output_shapes"
    value {
      list {
        shape {
          dim {
            size: 1
          }
        }
      }
    }
  }
  attr {
    key: "dtype"
    value {
      type: DT_STRING
    }
  }
  attr {
    key: "value"
    value {
      tensor {
        dtype: DT_STRING
        tensor_shape {
          dim {
            size: 1
          }
        }
        string_val: ""
      }
    }
  }
}
node {
  name: "save/RestoreV2_66"
  op: "RestoreV2"
  input: "save/Const"
  input: "save/RestoreV2_66/tensor_names"
  input: "save/RestoreV2_66/shape_and_slices"
  attr {
    key: "_output_shapes"
    value {
      list {
        shape {
          unknown_rank: true
        }
      }
    }
  }
  attr {
    key: "dtypes"
    value {
      list {
        type: DT_FLOAT
      }
    }
  }
}
node {
  name: "save/Assign_66"
  op: "Assign"
  input: "model/att_seq2seq/encode/bidi_rnn_encoder/bidirectional_rnn/fw/gru_cell/candidate/biases"
  input: "save/RestoreV2_66"
  attr {
    key: "T"
    value {
      type: DT_FLOAT
    }
  }
  attr {
    key: "_class"
    value {
      list {
        s: "loc:@model/att_seq2seq/encode/bidi_rnn_encoder/bidirectional_rnn/fw/gru_cell/candidate/biases"
      }
    }
  }
  attr {
    key: "_output_shapes"
    value {
      list {
        shape {
          dim {
            size: 256
          }
        }
      }
    }
  }
  attr {
    key: "use_locking"
    value {
      b: true
    }
  }
  attr {
    key: "validate_shape"
    value {
      b: true
    }
  }
}
node {
  name: "save/RestoreV2_67/tensor_names"
  op: "Const"
  attr {
    key: "_output_shapes"
    value {
      list {
        shape {
          dim {
            size: 1
          }
        }
      }
    }
  }
  attr {
    key: "dtype"
    value {
      type: DT_STRING
    }
  }
  attr {
    key: "value"
    value {
      tensor {
        dtype: DT_STRING
        tensor_shape {
          dim {
            size: 1
          }
        }
        string_val: "model/att_seq2seq/encode/bidi_rnn_encoder/bidirectional_rnn/fw/gru_cell/candidate/weights"
      }
    }
  }
}
node {
  name: "save/RestoreV2_67/shape_and_slices"
  op: "Const"
  attr {
    key: "_output_shapes"
    value {
      list {
        shape {
          dim {
            size: 1
          }
        }
      }
    }
  }
  attr {
    key: "dtype"
    value {
      type: DT_STRING
    }
  }
  attr {
    key: "value"
    value {
      tensor {
        dtype: DT_STRING
        tensor_shape {
          dim {
            size: 1
          }
        }
        string_val: ""
      }
    }
  }
}
node {
  name: "save/RestoreV2_67"
  op: "RestoreV2"
  input: "save/Const"
  input: "save/RestoreV2_67/tensor_names"
  input: "save/RestoreV2_67/shape_and_slices"
  attr {
    key: "_output_shapes"
    value {
      list {
        shape {
          unknown_rank: true
        }
      }
    }
  }
  attr {
    key: "dtypes"
    value {
      list {
        type: DT_FLOAT
      }
    }
  }
}
node {
  name: "save/Assign_67"
  op: "Assign"
  input: "model/att_seq2seq/encode/bidi_rnn_encoder/bidirectional_rnn/fw/gru_cell/candidate/weights"
  input: "save/RestoreV2_67"
  attr {
    key: "T"
    value {
      type: DT_FLOAT
    }
  }
  attr {
    key: "_class"
    value {
      list {
        s: "loc:@model/att_seq2seq/encode/bidi_rnn_encoder/bidirectional_rnn/fw/gru_cell/candidate/weights"
      }
    }
  }
  attr {
    key: "_output_shapes"
    value {
      list {
        shape {
          dim {
            size: 512
          }
          dim {
            size: 256
          }
        }
      }
    }
  }
  attr {
    key: "use_locking"
    value {
      b: true
    }
  }
  attr {
    key: "validate_shape"
    value {
      b: true
    }
  }
}
node {
  name: "save/RestoreV2_68/tensor_names"
  op: "Const"
  attr {
    key: "_output_shapes"
    value {
      list {
        shape {
          dim {
            size: 1
          }
        }
      }
    }
  }
  attr {
    key: "dtype"
    value {
      type: DT_STRING
    }
  }
  attr {
    key: "value"
    value {
      tensor {
        dtype: DT_STRING
        tensor_shape {
          dim {
            size: 1
          }
        }
        string_val: "model/att_seq2seq/encode/bidi_rnn_encoder/bidirectional_rnn/fw/gru_cell/gates/biases"
      }
    }
  }
}
node {
  name: "save/RestoreV2_68/shape_and_slices"
  op: "Const"
  attr {
    key: "_output_shapes"
    value {
      list {
        shape {
          dim {
            size: 1
          }
        }
      }
    }
  }
  attr {
    key: "dtype"
    value {
      type: DT_STRING
    }
  }
  attr {
    key: "value"
    value {
      tensor {
        dtype: DT_STRING
        tensor_shape {
          dim {
            size: 1
          }
        }
        string_val: ""
      }
    }
  }
}
node {
  name: "save/RestoreV2_68"
  op: "RestoreV2"
  input: "save/Const"
  input: "save/RestoreV2_68/tensor_names"
  input: "save/RestoreV2_68/shape_and_slices"
  attr {
    key: "_output_shapes"
    value {
      list {
        shape {
          unknown_rank: true
        }
      }
    }
  }
  attr {
    key: "dtypes"
    value {
      list {
        type: DT_FLOAT
      }
    }
  }
}
node {
  name: "save/Assign_68"
  op: "Assign"
  input: "model/att_seq2seq/encode/bidi_rnn_encoder/bidirectional_rnn/fw/gru_cell/gates/biases"
  input: "save/RestoreV2_68"
  attr {
    key: "T"
    value {
      type: DT_FLOAT
    }
  }
  attr {
    key: "_class"
    value {
      list {
        s: "loc:@model/att_seq2seq/encode/bidi_rnn_encoder/bidirectional_rnn/fw/gru_cell/gates/biases"
      }
    }
  }
  attr {
    key: "_output_shapes"
    value {
      list {
        shape {
          dim {
            size: 512
          }
        }
      }
    }
  }
  attr {
    key: "use_locking"
    value {
      b: true
    }
  }
  attr {
    key: "validate_shape"
    value {
      b: true
    }
  }
}
node {
  name: "save/RestoreV2_69/tensor_names"
  op: "Const"
  attr {
    key: "_output_shapes"
    value {
      list {
        shape {
          dim {
            size: 1
          }
        }
      }
    }
  }
  attr {
    key: "dtype"
    value {
      type: DT_STRING
    }
  }
  attr {
    key: "value"
    value {
      tensor {
        dtype: DT_STRING
        tensor_shape {
          dim {
            size: 1
          }
        }
        string_val: "model/att_seq2seq/encode/bidi_rnn_encoder/bidirectional_rnn/fw/gru_cell/gates/weights"
      }
    }
  }
}
node {
  name: "save/RestoreV2_69/shape_and_slices"
  op: "Const"
  attr {
    key: "_output_shapes"
    value {
      list {
        shape {
          dim {
            size: 1
          }
        }
      }
    }
  }
  attr {
    key: "dtype"
    value {
      type: DT_STRING
    }
  }
  attr {
    key: "value"
    value {
      tensor {
        dtype: DT_STRING
        tensor_shape {
          dim {
            size: 1
          }
        }
        string_val: ""
      }
    }
  }
}
node {
  name: "save/RestoreV2_69"
  op: "RestoreV2"
  input: "save/Const"
  input: "save/RestoreV2_69/tensor_names"
  input: "save/RestoreV2_69/shape_and_slices"
  attr {
    key: "_output_shapes"
    value {
      list {
        shape {
          unknown_rank: true
        }
      }
    }
  }
  attr {
    key: "dtypes"
    value {
      list {
        type: DT_FLOAT
      }
    }
  }
}
node {
  name: "save/Assign_69"
  op: "Assign"
  input: "model/att_seq2seq/encode/bidi_rnn_encoder/bidirectional_rnn/fw/gru_cell/gates/weights"
  input: "save/RestoreV2_69"
  attr {
    key: "T"
    value {
      type: DT_FLOAT
    }
  }
  attr {
    key: "_class"
    value {
      list {
        s: "loc:@model/att_seq2seq/encode/bidi_rnn_encoder/bidirectional_rnn/fw/gru_cell/gates/weights"
      }
    }
  }
  attr {
    key: "_output_shapes"
    value {
      list {
        shape {
          dim {
            size: 512
          }
          dim {
            size: 512
          }
        }
      }
    }
  }
  attr {
    key: "use_locking"
    value {
      b: true
    }
  }
  attr {
    key: "validate_shape"
    value {
      b: true
    }
  }
}
node {
  name: "save/RestoreV2_70/tensor_names"
  op: "Const"
  attr {
    key: "_output_shapes"
    value {
      list {
        shape {
          dim {
            size: 1
          }
        }
      }
    }
  }
  attr {
    key: "dtype"
    value {
      type: DT_STRING
    }
  }
  attr {
    key: "value"
    value {
      tensor {
        dtype: DT_STRING
        tensor_shape {
          dim {
            size: 1
          }
        }
        string_val: "model/att_seq2seq/encode/source_embedding/W"
      }
    }
  }
}
node {
  name: "save/RestoreV2_70/shape_and_slices"
  op: "Const"
  attr {
    key: "_output_shapes"
    value {
      list {
        shape {
          dim {
            size: 1
          }
        }
      }
    }
  }
  attr {
    key: "dtype"
    value {
      type: DT_STRING
    }
  }
  attr {
    key: "value"
    value {
      tensor {
        dtype: DT_STRING
        tensor_shape {
          dim {
            size: 1
          }
        }
        string_val: ""
      }
    }
  }
}
node {
  name: "save/RestoreV2_70"
  op: "RestoreV2"
  input: "save/Const"
  input: "save/RestoreV2_70/tensor_names"
  input: "save/RestoreV2_70/shape_and_slices"
  attr {
    key: "_output_shapes"
    value {
      list {
        shape {
          unknown_rank: true
        }
      }
    }
  }
  attr {
    key: "dtypes"
    value {
      list {
        type: DT_FLOAT
      }
    }
  }
}
node {
  name: "save/Assign_70"
  op: "Assign"
  input: "model/att_seq2seq/encode/source_embedding/W"
  input: "save/RestoreV2_70"
  attr {
    key: "T"
    value {
      type: DT_FLOAT
    }
  }
  attr {
    key: "_class"
    value {
      list {
        s: "loc:@model/att_seq2seq/encode/source_embedding/W"
      }
    }
  }
  attr {
    key: "_output_shapes"
    value {
      list {
        shape {
          dim {
            size: 3143
          }
          dim {
            size: 256
          }
        }
      }
    }
  }
  attr {
    key: "use_locking"
    value {
      b: true
    }
  }
  attr {
    key: "validate_shape"
    value {
      b: true
    }
  }
}
node {
  name: "save/restore_shard"
  op: "NoOp"
  input: "^save/Assign"
  input: "^save/Assign_1"
  input: "^save/Assign_2"
  input: "^save/Assign_3"
  input: "^save/Assign_4"
  input: "^save/Assign_5"
  input: "^save/Assign_6"
  input: "^save/Assign_7"
  input: "^save/Assign_8"
  input: "^save/Assign_9"
  input: "^save/Assign_10"
  input: "^save/Assign_11"
  input: "^save/Assign_12"
  input: "^save/Assign_13"
  input: "^save/Assign_14"
  input: "^save/Assign_15"
  input: "^save/Assign_16"
  input: "^save/Assign_17"
  input: "^save/Assign_18"
  input: "^save/Assign_19"
  input: "^save/Assign_20"
  input: "^save/Assign_21"
  input: "^save/Assign_22"
  input: "^save/Assign_23"
  input: "^save/Assign_24"
  input: "^save/Assign_25"
  input: "^save/Assign_26"
  input: "^save/Assign_27"
  input: "^save/Assign_28"
  input: "^save/Assign_29"
  input: "^save/Assign_30"
  input: "^save/Assign_31"
  input: "^save/Assign_32"
  input: "^save/Assign_33"
  input: "^save/Assign_34"
  input: "^save/Assign_35"
  input: "^save/Assign_36"
  input: "^save/Assign_37"
  input: "^save/Assign_38"
  input: "^save/Assign_39"
  input: "^save/Assign_40"
  input: "^save/Assign_41"
  input: "^save/Assign_42"
  input: "^save/Assign_43"
  input: "^save/Assign_44"
  input: "^save/Assign_45"
  input: "^save/Assign_46"
  input: "^save/Assign_47"
  input: "^save/Assign_48"
  input: "^save/Assign_49"
  input: "^save/Assign_50"
  input: "^save/Assign_51"
  input: "^save/Assign_52"
  input: "^save/Assign_53"
  input: "^save/Assign_54"
  input: "^save/Assign_55"
  input: "^save/Assign_56"
  input: "^save/Assign_57"
  input: "^save/Assign_58"
  input: "^save/Assign_59"
  input: "^save/Assign_60"
  input: "^save/Assign_61"
  input: "^save/Assign_62"
  input: "^save/Assign_63"
  input: "^save/Assign_64"
  input: "^save/Assign_65"
  input: "^save/Assign_66"
  input: "^save/Assign_67"
  input: "^save/Assign_68"
  input: "^save/Assign_69"
  input: "^save/Assign_70"
}
node {
  name: "save/restore_all"
  op: "NoOp"
  input: "^save/restore_shard"
}
library {
  function {
    signature {
      name: "att_sum_dot"
      input_arg {
        name: "keys"
        type: DT_FLOAT
      }
      input_arg {
        name: "query"
        type: DT_FLOAT
      }
      output_arg {
        name: "Sum"
        type: DT_FLOAT
      }
      description: "Calculates a batch- and timweise dot product"
    }
    node_def {
      name: "ExpandDims/dim"
      op: "Const"
      attr {
        key: "dtype"
        value {
          type: DT_INT32
        }
      }
      attr {
        key: "value"
        value {
          tensor {
            dtype: DT_INT32
            tensor_shape {
            }
            int_val: 1
          }
        }
      }
    }
    node_def {
      name: "ExpandDims"
      op: "ExpandDims"
      input: "query"
      input: "ExpandDims/dim:output:0"
      attr {
        key: "T"
        value {
          type: DT_FLOAT
        }
      }
      attr {
        key: "Tdim"
        value {
          type: DT_INT32
        }
      }
    }
    node_def {
      name: "mul"
      op: "Mul"
      input: "keys"
      input: "ExpandDims:output:0"
      attr {
        key: "T"
        value {
          type: DT_FLOAT
        }
      }
    }
    node_def {
      name: "Sum/reduction_indices"
      op: "Const"
      attr {
        key: "dtype"
        value {
          type: DT_INT32
        }
      }
      attr {
        key: "value"
        value {
          tensor {
            dtype: DT_INT32
            tensor_shape {
              dim {
                size: 1
              }
            }
            int_val: 2
          }
        }
      }
    }
    node_def {
      name: "Sum"
      op: "Sum"
      input: "mul:z:0"
      input: "Sum/reduction_indices:output:0"
      attr {
        key: "T"
        value {
          type: DT_FLOAT
        }
      }
      attr {
        key: "Tidx"
        value {
          type: DT_INT32
        }
      }
      attr {
        key: "keep_dims"
        value {
          b: false
        }
      }
    }
    ret {
      key: "Sum"
      value: "Sum:output:0"
    }
    attr {
      key: "_noinline"
      value {
        b: true
      }
    }
  }
}
versions {
  producer: 21
  min_consumer: 12
}
